models/constrained/egnn_state_dict.pth (torch, 77358 bytes, 22 tensors)

time_embed.net.0.weight f4 [32, 1]
00000000: 3d63 6b3f ce7f 7abf 8750 2ebf a67d 09bf
00000010: 6871 f53e 6634 c4bd 78c9 523f 63a3 84bf
00000020: 64fb 1e3f 8077 c73d 04ff 71bf 39a3 7b3f
00000030: 4489 453f 4c06 68bf f685 153f 428b ef3e
00000040: 6c87 2bbf cd63 483c 0039 a33c e0a9 883d
00000050: 3803 3c3e fe19 6cbf 008c 5cbf e0ed 2bbe
00000060: 2e83 083f 081b c3be 0927 f4be b410 d23e
00000070: 3618 253f 58ca dcbe aa06 743f 407b 9d3c
0.919483 -0.97851264 -0.68091625 -0.5370735 0.47938085 -0.09580307 0.82338667 -1.0362362
0.6210234 0.0973959 -0.9452975 0.98295933 0.77162576 -0.9063461 0.58407533 0.46785933
-0.6700351 0.012230826 0.01992464 0.06673026 0.18360603 -0.9222716 -0.86151123 -0.16789961
0.53325164 -0.3810656 -0.4768603 0.41028368 0.6449007 -0.43123126 0.9532267 0.01922381

time_embed.net.0.bias f4 [32]
00000000: 9680 0dbf e471 013e 70ba 2d3f e8dd cfbe
00000010: 5037 46bf 28db e53e c4c2 61bf 995d 553e
00000020: 2279 53bf 1cd1 b1be 58d2 f3be 7b1f 113f
00000030: e134 f0be c688 0c3f 9e89 3dbe 2bd2 413f
00000040: 049b d4be 26c4 153f 205c debd ac6b acbe
00000050: fc20 31bf a655 693f bbc5 8c3d 0804 7fbf
00000060: 55de ce3e 7cf5 74bf 81dd 1c3f c8e4 40bf
00000070: 1072 70bf 08c0 5bbe 3fc8 31bc a0c5 85be
-0.5527433 0.12641102 0.67862606 -0.4059899 -0.7742815 0.44893765 -0.88187814 0.20836486
-0.8260671 -0.3472985 -0.47621417 0.5668866 -0.46915343 0.548962 -0.18509528 0.75711316
-0.41524518 0.58502424 -0.10857415 -0.33675897 -0.69190955 0.91146314 0.068736516 -0.99615526
0.40404 -0.9568708 0.6127549 -0.7534909 -0.93924046 -0.21459973 -0.010850965 -0.26127338

time_embed.net.2.weight f4 [8, 32]
00000000: 05f2 e3bd 3299 f73e 544a 94bd 9f60 b7bd
00000010: 12a8 f43c 8ac2 cf3d 7563 a03d d672 573e
00000020: 56dd 7abd 74c2 8bbc 646a 34be 0ca1 78be
00000030: 6e8a 04bc 2715 14bb eb93 da3d 4262 26be
00000040: cab6 9bbb 380a ccbd cece eabd 4e81 eb3d
00000050: e9c9 eabd a027 b03d 9749 203f 7aa4 fb3c
00000060: f68e 20be 3623 a2bd e2a7 043e da97 1dbe
00000070: f3ec 97bc 0732 5bbd f6f0 86bd a7b7 023e
00000080: a191 68be 8348 7fbe 88bd b2bd eeb7 08be
00000090: bf15 e73d 00cd f6bd 06fc 0abe 6654 98bd
000000a0: fe9f d3bd bb95 e53d 84a6 69bc 78a0 033e
000000b0: 2660 c43c bb28 013d 2c53 8bbe b348 053e
000000c0: 1dfe fdbd af15 bc3c 976e 233e 1133 a63d
000000d0: 6ec4 af3c 9a02 8fbc a429 12bf 8a09 60bd
000000e0: 845f 22be 0cf4 493d e0a4 07be 1d6e d63d
000000f0: ac63 e53d e262 a0bd 898b 16be 5fed 5e3d
00000100: 5749 573e d2cf eebe 3ddf b8bd 7430 3abd
00000110: f1b0 593d 4664 213e a734 0bbe 96a1 82be
00000120: 2e22 943d 4436 21bd 865c 52bd 9acb 723e
00000130: 7f94 2e3e b8a4 92be 9a39 2abe 4062 1a3e
00000140: e51d 9cbd 3f3a a3bd cfd2 993d 66be f23c
00000150: 1527 e53d 542e 69be e1ea 26bf 597a e63d
00000160: d230 0f3e 6502 e6bd 4deb 0dbe 3480 cfbd
00000170: 75ee 7fbd 9729 09be 315b 453e 872a 86bd
00000180: a45a 3dbd c3d6 733e 9906 483e 512a 0e3e
00000190: f9d4 29be 905d 103e 785b 313e f068 e13d
000001a0: 9e63 efbc 72d2 1fbe 90d5 edbd f9c1 6dbd
000001b0: e793 20be c74f 6b3e b8c8 15be 92f5 b2bd
000001c0: 6177 2e3e f93a 1b3e bcfe 89bd aa9e 1abe
000001d0: 278d 12be 2349 593e 3483 7d3e f8d2 fbbc
000001e0: 62ad bc3d c5f5 0abd 3e0a a53d 6e36 d63d
000001f0: 1c77 343e 64df c8bd 5cb1 3bbe 2786 393c
00000200: 41a1 f4bd 9813 1d3e 3166 92bd 9c4f 92bd
00000210: a09c 0fbd 2fea bb3d d611 8abd dd76 d2bc
00000220: d0af 2bbc 6958 a63d 1a9a 143d 4a36 e6bd
00000230: 7c56 f3bd ebf8 713e 2368 07be 4178 d6bd
00000240: cab1 17be 9d4a 18bd b592 6b3d 3b47 f83d
00000250: 7a8e efbd 7c82 243e d5d5 873e 6099 313e
00000260: cfe9 1ebe 0aab 2fbd 1d04 f43d 86f3 ae3d
00000270: 25ac 98bd 4e3a dfbd c323 473d e75f 28bc
00000280: 0f17 e7bd ac4b cb3e beed 1bbd 461a 0c3e
00000290: 3396 a73d 860c d5bd 4ca0 1bbd 9bcb 7a3e
000002a0: 3fb8 d03d 32bf 21be 02ff 05be fd32 f8bd
000002b0: cc1f 46bd 6b6d 4a3e 68dd 4f3e 9c73 80bd
000002c0: f5a2 153d c7ba 26bc 78f6 34be 3bcf 03be
000002d0: 95fb 4dbd 6ae1 c63d bb7b a93e 9bbe 11be
000002e0: 1364 04be 8b07 cd3d 9cd6 f7bb 52e8 543d
000002f0: 7289 013e 4adf d33c ab0c c5be 7f98 dc3d
00000300: 8905 6e3e cc6b 663e af19 bfbc 30c9 c73d
00000310: 9782 0ebe 9a44 e83d fb6c 79bd bb71 7e3e
00000320: d87a 11be 1dad 863b b7fe e33d abdc 6fbd
00000330: c25d ff3d d8e0 5ebd 952b 793e 3d23 66bd
00000340: 96ca 703d d20b 2bbd 941b b53a 8c49 103e
00000350: 2f46 c5bc c2eb 33be f9a6 a93e 26a2 323e
00000360: 8a6e aabd cfbd 903b e4f9 6a3d 5ccb 633d
00000370: 4527 2dbe a76b d3bd 72ff 093d 4371 1d3e
00000380: 1857 87bd 390b be3d 1488 903d d94b 1c3e
00000390: e315 1e3d c6ee 16be f833 e03d 047d a6bc
000003a0: 7261 30be ea3c 1d3d dfd4 c0bd e388 973d
000003b0: d342 8e3d 9de9 ee3d 9009 edbc 0276 413c
000003c0: b0a4 87bc 51c7 fabd 6a69 5d3d af1f a9bd
000003d0: d85f c0bd 2e39 3ebe 2ee7 4e3e 082e 973c
000003e0: 410c 933d ed97 d93b e52f d03d 34d1 593c
000003f0: efa8 973d 229e 33be 954a 19be a115 183e
-0.11130146 0.48359066 -0.072407395 -0.08953976 0.029865298 0.10144527 0.0783147 0.210399
-0.06124624 -0.017060496 -0.1761871 -0.24280185 -0.008089645 -0.0022595616 0.10672744 -0.1624842
-0.0047520148 -0.099628866 -0.11465226 0.11499272 -0.114642926 0.08601308 0.6261229 0.030718077
-0.15679535 -0.07916872 0.12954667 -0.15389958 -0.018545603 -0.053514507 -0.065889284 0.1276537
-0.22711803 -0.24930005 -0.087275565 -0.13351414 0.112834446 -0.120508194 -0.13572702 -0.07437973
-0.103332505 0.112101994 -0.014260892 0.12854183 0.023971628 0.031532984 -0.27211893 0.13016014
-0.12401984 0.022959558 0.15960155 0.08115209 0.02145597 -0.017457295 -0.5709479 -0.054696597
-0.15856749 0.049305007 -0.13246489 0.10470221 0.112006515 -0.078313604 -0.14701666 0.054425593
0.2102407 -0.4664293 -0.09026954 -0.045456365 0.05314726 0.15760908 -0.13594304 -0.25513905
0.07233082 -0.039358392 -0.05135777 0.2371048 0.17048834 -0.28641295 -0.16623536 0.15076542
-0.076228894 -0.07970094 0.07510912 0.029631805 0.11189095 -0.22771579 -0.65202147 0.11253805
0.13983467 -0.112309255 -0.13859291 -0.10131875 -0.06248327 -0.13394772 0.19273068 -0.0655108
-0.04622902 0.23812394 0.19533767 0.1388333 -0.16585149 0.14098191 0.17320049 0.11006343
-0.029222306 -0.15607622 -0.116129994 -0.058046315 -0.1568142 0.22979651 -0.1462735 -0.08738245
0.17037727 0.15159215 -0.0673804 -0.15099588 -0.14311658 0.21219306 0.24757081 -0.030740246
0.09212758 -0.03392579 0.08058594 0.104596004 0.17623562 -0.098082334 -0.18329376 0.011323488
-0.11944819 0.15339506 -0.07148398 -0.071440905 -0.03506148 0.09175526 -0.06741683 -0.025691444
-0.010478929 0.08122332 0.036279775 -0.112408236 -0.1188173 0.23630111 -0.13223319 -0.10472155
-0.14813915 -0.03718053 0.057512958 0.12122961 -0.11697097 0.16065401 0.26530328 0.17343664
-0.15518878 -0.042887725 0.11914847 0.08542542 -0.07454709 -0.108997926 0.04861809 -0.010276771
-0.11283695 0.3970617 -0.038068525 0.13681898 0.08182945 -0.10402779 -0.037994668 0.24491732
0.10191392 -0.15795591 -0.13085559 -0.121191 -0.048370168 0.19768302 0.20299304 -0.06272051
0.03653236 -0.010176367 -0.17672145 -0.12872021 -0.050288755 0.09710963 0.3310221 -0.14232866
-0.129288 0.10011204 -0.007563425 0.05197937 0.12650087 0.025863308 -0.38486227 0.10771274
0.23244299 0.22502059 -0.023327677 0.0975517 -0.13917004 0.1134121 -0.060894947 0.24848072
-0.14207017 0.004109992 0.111325674 -0.058560055 0.12469055 -0.054413646 0.24333031 -0.05618595
0.05878695 -0.04175932 0.0013817423 0.14090556 -0.024081318 -0.17570403 0.33135203 0.17444667
-0.08321865 0.004417158 0.05736722 0.05561386 -0.16909511 -0.103232674 0.033690877 0.15375237
-0.06608409 0.09279484 0.07057205 0.15263309 0.03859509 -0.14739522 0.10947412 -0.020323284
-0.17224672 0.03838817 -0.09415602 0.07399156 0.069463395 0.11665652 -0.028935224 0.01180792
-0.016558021 -0.12245048 0.05405561 -0.08257996 -0.09393281 -0.185765 0.20205376 0.018454567
0.071800716 0.0066404254 0.10165385 0.013294507 0.074052684 -0.17540792 -0.14969857 0.14852001

time_embed.net.2.bias f4 [8]
00000000: 0014 29bd a02b 103e 82e2 7abd 6282 b93c
00000010: 7d22 fdbd a3cc bebb 3be4 253e 8581 0fbe
-0.04127884 0.14079142 -0.06125117 0.02264518 -0.12360094 -0.0058227344 0.16200344 -0.14014252

egnn1.node_mlp.0.weight f4 [128, 35]
00000000: eedf 78be 7e36 c2bb 698b 373e bc55 1f3d
00000010: c8b1 b33d b96f d1bd 1a29 a83d f339 3f3b
00000020: 8b1c 31bd 9548 693e b8fd b7bc 0cd1 20be
00000030: af8c 2ebe 57e4 213e 760f 1c3e 0738 babd
00000040: 56dc 303e d92d e2bc 19db ba3c 32db ffbd
00000050: 2084 bdbd b7c3 07be 3472 053e a079 eabd
00000060: 53bf abbd abee 533d cf5f 073e fe42 0e3e
00000070: d69e db3d 3e61 893d 6239 bfba fcc8 3d3c
00000080: 9db5 263c 6ee9 303d 0371 893e ae5f 59bc
00000090: ff78 36bd 546c 8dbd d461 9bbc 278c 123e
000000a0: c36c 103e d145 60be 2a65 a8be 77a9 ed3e
000000b0: b4a2 d2bc c983 113e dd49 013e bfa2 68bc
000000c0: 996c 423e 7b53 41bd 0e26 ce3b 3640 3b3d
000000d0: bd0d 1a3c bcb9 02be 4ddb 3dbe 4522 2e3e
000000e0: ba6c 043c 3e92 a13d 441b f5be 55b2 00be
000000f0: e532 ab3e f525 283e b74c d3bd 1756 063d
00000100: 9421 2dbe 403b ab3d 5aaa 073e c9d4 e2bc
00000110: 488c a6bb 7ddb b23c 6fd1 20bf 0e48 643d
00000120: 1bbe 27be 8294 acbd efe1 30bd fc09 33be
00000130: 2238 9a3d 97ac bebb 92d1 4ebc 71aa 20be
00000140: 78f0 ed3d 9bab cfbd ba74 fbbc 8d65 223e
00000150: 0816 5a3d 8281 f23b 03e2 f23d 2883 17be
00000160: a902 74bd b54d 263e fe11 d13d d276 873d
00000170: dca4 0e3e 8838 afbd 0c9b 093d a14e c93a
00000180: fff1 a83d 992e e6bc be4c 0d3c 9994 9abb
00000190: e010 863a be2b e33d 45e6 c33d 5026 1fbd
000001a0: 551b b63d 9526 adbd 76a4 0f3e 1cdb a43d
000001b0: 3c6b 10ba eb98 2b3e 6385 9e3d 0996 163c
000001c0: 6145 50be 84e6 95bb cf8e 073e 24cf 273d
000001d0: bb4a a73d 2258 07be 5a29 883d 423a 323d
000001e0: b0ab 343e c521 f33c 18a3 fcbb 639d bbbc
000001f0: b4e7 33bd e6f8 903d 80b7 c33c db7b 8a3d
00000200: 9728 4d3c 687e ed3c 2f92 12be 8d60 ddbd
00000210: cd28 c93d 2dbb 33be c55c 00be 48c0 243d
00000220: cbde c33d 2ad4 153e c64c 5c3c cae1 d13e
00000230: f9da 8c3d 4cff b7bd 5a54 0c3e 5b72 62bc
00000240: c695 20bc 00ef edbb 7892 ca3d 35d0 b83c
00000250: 0884 75bc cc43 af3c 67f9 6f3e e074 193e
00000260: 92cb 02bd 635b 063e bb92 10bd 3010 73be
00000270: 3778 1dbd 41e2 063e 72a1 c6bd 1929 613d
00000280: a5f6 84bd 79e9 fa3d cb33 3cbe b023 f9bd
00000290: 780c 52bd bfe8 07bd 2a11 0dbe edf4 323e
000002a0: 31f2 c13d 9c85 11bd d138 2abd a2bf 21be
000002b0: bf0e 6bbe a61e c8bd 5267 723e e723 6abc
000002c0: 872d d9bd 68b3 503e 1999 173e 5370 ed3c
000002d0: 9d56 25bd 849c 8cbd 4c53 15be 5b4d 0b3e
000002e0: 42df 00be b907 fd3d 4672 99bd 5aca 2f3e
000002f0: 5e8c 34bb 3f50 e6bd 5315 25be c7fd 66bd
00000300: 7fac 993c 8123 55bd 7dd8 29bd 422b 03be
00000310: 834b 10be 1725 d23d 5606 a2bd 79e5 363d
00000320: ecc7 bdbd 20fc 77bd 6932 163e aac9 b5bd
00000330: 90a1 a5bd f76a a63d 5fb4 2a3e 8da4 a43d
00000340: 91c0 e3bd b8db e1bd 2590 bd3c 1d53 d93d
00000350: ce8b f53d 83eb d33d 4941 1a3e 4161 8a3d
00000360: ce71 f8bc b96d 823e 6192 70bd db03 23be
00000370: bf46 253e 2e90 013d 7780 283d 600c 223d
00000380: da58 cdbd 0106 c1bd 1fe6 60bd 6538 ecbb
00000390: 54d2 413e b8ec 3d3e d084 98bd 2bff 1f3e
000003a0: f55a f9bd 7c00 afbc ad40 8b3e 6ce7 c03d
000003b0: bb59 44be 7dc4 e43d 1880 9ebd 65fc 913d
000003c0: 22a8 09be bdd8 043e 4db2 93bd 9f66 94bd
000003d0: fdd7 e73a 026e 7cbd 842f 5ebd 0ccc 363e
000003e0: e5f5 a63d 9568 fabd cd26 6bbd 75b8 29be
000003f0: 17af 5ebd 4c13 bc3d b3fc 24be a9d1 27bd
-0.24304172 -0.005926906 0.17924275 0.038900122 0.087741435 -0.102263875 0.082109645 0.0029178828
-0.04324011 0.22781594 -0.02245985 -0.15704745 -0.17045854 0.15809761 0.15240273 -0.090927176
0.17271551 -0.027609752 0.022809552 -0.1249298 -0.092537165 -0.13258253 0.13031846 -0.114489794
-0.083861016 0.051741283 0.13220142 0.13892743 0.10723655 0.067080006 -0.0014589245 0.011583563
0.010175136 0.043191366 0.26844034 -0.013267441 -0.044548985 -0.069054276 -0.018967547 0.14311276
0.1410399 -0.21901633 -0.32889682 0.46418354 -0.025712349 0.14210428 0.12625833 -0.014198958
0.18986739 -0.047198754 0.0062911576 0.045715533 0.0094026895 -0.12766165 -0.18540688 0.1700526
0.008082563 0.078892216 -0.47872365 -0.12568028 0.33437267 0.1642073 -0.103173666 0.032796945
-0.1690734 0.083609104 0.13248578 -0.027689354 -0.005082641 0.021833176 -0.6281957 0.05573278
-0.16381113 -0.08426763 -0.043184217 -0.17484277 0.07530238 -0.005818914 -0.012623208 -0.15690018
0.116181314 -0.10140153 -0.030695308 0.15859051 0.053243667 0.0074006924 0.118595146 -0.14796126
-0.05957285 0.1624058 0.1020851 0.0661446 0.13930076 -0.08555704 0.03359513 0.0015358516
0.08249282 -0.028098391 0.008624254 -0.0047174213 0.0010228418 0.110923275 0.09565405 -0.038854897
0.08891932 -0.084546246 0.1402758 0.08049604 -0.0005509143 0.16757552 0.07740285 0.009191045
-0.20338966 -0.0045745987 0.13238071 0.04096903 0.081685506 -0.13217214 0.06648512 0.04351259
0.17643619 0.029679189 -0.007709872 -0.022902196 -0.04392214 0.070787236 0.02389121 0.06761905
0.012521884 0.02899094 -0.14313577 -0.10809431 0.09822235 -0.1755187 -0.12535389 0.040222436
0.09563979 0.14631715 0.013446039 0.40992576 0.06877703 -0.08984241 0.13704053 -0.01382121
-0.009801334 -0.007261157 0.09891218 0.022560218 -0.014985092 0.021394633 0.23434983 0.1498599
-0.03193242 0.13120799 -0.035296183 -0.23736644 -0.038444724 0.13172247 -0.09698762 0.054970834
-0.06492356 0.122515626 -0.18379132 -0.1216501 -0.051281422 -0.03318095 -0.13776079 0.17476244
0.094700225 -0.03552781 -0.04155809 -0.15795758 -0.22954844 -0.09771471 0.23672226 -0.014290786
-0.10604387 0.20380938 0.14804496 0.028984224 -0.040365804 -0.068657905 -0.14582556 0.13603728
-0.12585166 0.123549886 -0.07492499 0.17167035 -0.0027549486 -0.112457745 -0.16121416 -0.056394365
0.01875901 -0.052035812 -0.041466225 -0.1280947 -0.14091305 0.102609806 -0.07911365 0.044652436
-0.09266648 -0.06054318 0.14667667 -0.08876355 -0.08087456 0.08125871 0.16670369 0.08039198
-0.111207135 -0.11028236 0.023140023 0.10611556 0.11989556 0.10347655 0.15063967 0.06756831
-0.030327704 0.25474337 -0.058733348 -0.1591944 0.16140269 0.03163164 0.04113814 0.039562583
-0.10026713 -0.09424973 -0.05490696 -0.007208871 0.1892789 0.18547332 -0.07447207 0.15624683
-0.12175552 -0.021362536 0.2719778 0.0941914 -0.19174854 0.1117029 -0.07739276 0.071282186
-0.13443044 0.12973304 -0.072117426 -0.07246136 0.0017688271 -0.06162835 -0.054244533 0.17851275
0.081523694 -0.12226979 -0.05741005 -0.16574271 -0.054366197 0.09183368 -0.16112022 -0.040971432

egnn1.node_mlp.0.bias f4 [128]
00000000: d881 783c 0257 1abe f1b3 9938 24eb dbbd
00000010: f1d6 b83d 1aa6 b93d 86b8 c1bd 1d1d 94bc
00000020: 3bbe 1d3b aa43 263e ad2a 2c3c fac2 003e
00000030: 66b1 80bd aa26 173d d559 0b3e eb1c 683e
00000040: 5468 cc3d b73f d2bd b8d0 76bd f50d 483d
00000050: f2b8 c03d f78c 08be 7b73 253e fda6 8a3d
00000060: ddf5 af3d 0bbb 063e 7caa 47bd 9170 1a3d
00000070: a9b5 023e 39c3 9ebd 5e4a 0cbe 66d8 0d3c
00000080: f367 a63d 4ac6 6fbe a1ea acbd bc03 93bc
00000090: 0ae3 b53c dcd7 ca3d 8e2d a83d e44d 70bc
000000a0: 26cc a33d f226 b43b 4792 593e f44f 083c
000000b0: 1638 f5bd 4f80 953d 0687 c8bc 8d85 7f3d
000000c0: 754a 14be 2cbe b3bc 66dd bfbd a352 5fbe
000000d0: 21d3 053b 93a6 2ebe 2cb7 cb3d 7707 9dbd
000000e0: 1d89 a0bd aae2 1d3d 6c52 bfbd dff1 5abd
000000f0: 1e0a a73d bae1 6abe 34fa b43d ba9b d63d
00000100: bf00 3e3e 3d50 80bd 8692 563d 4d0f cc3d
00000110: 8a81 23be c8c4 a93c b415 8cbc 9457 cb3b
00000120: 14f8 b1bc 6ed6 98bd 7269 46bd 0725 e3bd
00000130: defd 2d3d e93c a9bd 593e 2f3e e8cc 493e
00000140: c5db 0d3e 224e eebd b18c de3d 87c1 883c
00000150: 3b37 963b d60c 3b3d 0ba0 1e3d 1159 8cbc
00000160: beb0 02be 3a85 313e 4f7e a03d 5c62 4fbe
00000170: 9947 22bd b05f f93d 7464 883d 1965 88bb
00000180: 76b4 3bbd 31af 57bd faed dabd 5ad9 0f3e
00000190: f705 133e 4b41 463a 743c ddbd 48cd 2bbd
000001a0: 38c2 75bd 8731 8c3e 2f04 d2bd fe4b d83d
000001b0: af6c 3fbe 1f7d 673d ac6a 663e bdea ccbc
000001c0: 816a 473e ed6f b8bd c247 1abe c5bb 9fbd
000001d0: 8136 cd3d c48a 753e 59cf 133d eff7 cbbc
000001e0: bfaf 203e a00f a43a a2f5 febd 7589 403e
000001f0: 1a6a b0bd 19b9 3dbe 72b9 52bc 6f80 11be
0.015167676 -0.15072253 7.329125e-05 -0.10738209 0.09025372 0.090648845 -0.09459023 -0.018080289
0.0024069685 0.1623675 0.010508222 0.12574378 -0.06283836 0.036902107 0.13608487 0.22667281
0.099808365 -0.10266059 -0.060257643 0.048841435 0.094102755 -0.13335024 0.16157334 0.06770132
0.085918166 0.13157289 -0.04874657 0.037705008 0.1276461 -0.077520795 -0.13700244 0.00865755
0.081252955 -0.23415485 -0.084431894 -0.017946117 0.022202987 0.09904453 0.08211814 -0.014667008
0.079979226 0.0054978067 0.21247207 0.008319844 -0.11973588 0.072998635 -0.024478447 0.062383223
-0.14481528 -0.021941267 -0.093684 -0.21808867 0.0020420032 -0.1705573 0.09947047 -0.076674394
-0.07838652 0.03854624 -0.093418926 -0.053453322 0.081562266 -0.2293767 0.08836785 0.10478921
0.18554972 -0.06265304 0.05238583 0.09963856 -0.15967384 0.020723715 -0.017100193 0.0062055085
-0.021724738 -0.07462774 -0.048440404 -0.11091047 0.042478435 -0.08263571 0.17113627 0.19707072
0.13853367 -0.116359964 0.108666785 0.016693844 0.0045842207 0.04566654 0.038726848 -0.017132314
-0.12762734 0.17335978 0.078365915 -0.20252365 -0.039619062 0.12176454 0.06659785 -0.0041624424
-0.045826398 -0.05265731 -0.10689922 0.14047757 0.14357744 0.000756283 -0.10802546 -0.04194382
-0.059999675 0.27381536 -0.10254704 0.10561369 -0.18693803 0.05651581 0.2250163 -0.025014276
0.19474222 -0.09005723 -0.15066436 -0.07799486 0.100201614 0.23978716 0.036086414 -0.024898497
0.15692042 0.0012516864 -0.124491945 0.18802436 -0.08613987 -0.1852764 -0.012861596 -0.1420915

egnn1.node_mlp.2.weight f4 [17, 128]
00000000: 4e6f 31be ce10 b83c 0f4a 2abe 4374 0cbd
00000010: 3279 c53c 5c15 bfbb f5dc 473c dc82 94bc
00000020: f740 c43d f768 1dbd 1d68 34be c12c 7e3e
00000030: 8d62 83be 8dd1 a63b 5726 14be 9695 823d
00000040: 0bac a03c 1621 b33e 624e ed3a 808f cebd
00000050: 0ba3 db3d b041 9dbe ced8 7dbd f84d 573d
00000060: 5822 8d3c c6e7 2e3b 6363 06bc 7be0 e23d
00000070: 238e bbbc ebe3 123e b10d 54be 17b9 b6bc
00000080: 7106 1dbd 0bf6 cbbd 0a39 f93b 6bde 4dbd
00000090: 1630 2abe 0573 cabc 6920 e9bd 1834 12be
000000a0: 5b55 643d 78b2 653e 52e6 00bd 61eb b1bc
000000b0: 398a 4dbe dfc2 24bd 4f05 acbe dd96 123e
000000c0: 7e88 02be fa97 b0be 67d4 aabe 2e81 edbd
000000d0: 1c91 72be f39a f8bd 8cc9 c13b 56ed 743e
000000e0: 06eb 06be b779 edbd 4da1 48be dc3b 7a3d
000000f0: e71a 8abd e483 193f 66d2 cbbd b587 1a3e
00000100: f105 b7bd 8718 e03d 1c61 913d 06df 453e
00000110: 9652 f73e 58ad 573d b7e3 b0bc dc2d 0c3e
00000120: 59e6 833b c28a c33d ae95 15bd d99c adbd
00000130: 4704 043d 10ca 2abe 299b 68bc 5e89 c0bb
00000140: 9dd4 173e be64 d2bd ce9d 1fbb 0b50 ee3c
00000150: 93c3 cd3d 634b 8c3d 2f22 a43d 48ff 993c
00000160: 6f04 123e 7227 26bc dca2 d6bd 7068 0bbf
00000170: dae5 dfbd 7623 30be be99 0ebc 117e 5abc
00000180: 68d1 113e 9282 d4bb 51e5 d6bc 1421 6f3d
00000190: ab49 183d 1514 a63d 07d7 b2bd 5f8c 7f3b
000001a0: 7731 503e 8f42 57bc cd70 ee3c 6c33 24bd
000001b0: caae 493d 5147 d33d df1c c6bc edc6 bdbc
000001c0: 1bfe 413e 4a25 6abd b94f 6d3e 795b 2b3e
000001d0: cc56 62be c8f4 c53d a7f2 c1bd 8cde 1bbe
000001e0: 23b7 9f3d 63de a3bb 02f1 67bd f7b2 b5bd
000001f0: 0e71 593d e30f a4be 9f73 003e c0f6 f3bc
00000200: e1c2 813e 2bb0 933e 77d2 0ebd d9eb 713e
00000210: e1b8 303c 0d6a 193d 44fc 8d3d 9453 833d
00000220: a49b 77bd 3256 0dbe ab83 11be e684 a2bc
00000230: 2911 15be 90be 28be bed2 6dbe fee6 bcbd
00000240: f465 31bc 3d8f 66bd dc9e 93bd a71a 59bd
00000250: 9623 ac3c 4266 18bd 8e60 bfbd 645e 813d
00000260: cdb6 6c3c 15f5 ef3c 40d9 493e 38d5 8e3d
00000270: 7c18 7d3b 6f8c 2b3e c6cc 9fbd d518 ddbd
00000280: d16a b43b 4617 993e cb06 ee3d a22f fabd
00000290: bf9b 3bbe 662e 323b 276e 073d f3a4 9e3c
000002a0: de25 1f3d 97f4 1a3e cef9 dbbd 4fb5 1dbe
000002b0: 0440 04be e045 903d 70f1 3fbe 6483 ae3c
000002c0: 0e0e 0bbd 17f1 49be 59f4 44be d761 9f3d
000002d0: b63d 3fbe 9042 9bbd 8acf e43d 27b8 9a3d
000002e0: 6085 303e f3d4 16be f2da 393d 5b9c ad3b
000002f0: d012 fa3c afe4 4fbd fbea d63c b76c f63c
00000300: 9f2f 913d c8b6 f03d 28c5 723e 5d0c c13d
00000310: 1b7b 053e 44aa cabd 9726 ddbc 1b6a ee39
00000320: bd4d 583d 0d56 c6bb 82ac efbd a8e8 00bd
00000330: 1b79 8b3d e87d 7c3d 50c1 013e fe10 2cbe
00000340: e9eb 363b 5cab eebc 277f 013e 9eb8 8e3e
00000350: 725b 9e3d 3ff9 e83c 626b 693e 618c cc3d
00000360: 0705 353d 8828 b43d ec2d a2bd 4039 44be
00000370: d81e 2c3e 513e 92bd f261 c33d 50e6 b13d
00000380: d04e 443e b1a0 173d 0468 2e3e 7c41 d6bc
00000390: 0ede 5e3d 0526 07be 23e4 f53d 5d23 483e
000003a0: adae 2e3e cdb6 08be 9f79 9e3d 01d6 b5bd
000003b0: eff1 15bd ef42 5abb a223 5ebe e6ba c73c
000003c0: bb9f 5f3c 65ad ae3d 403d 853d db71 f83d
000003d0: b774 7fbe 8e0d 30be 38a6 1f3e b2d1 59bd
000003e0: 3a58 2ebe ef5d 033e afc5 2dbd 8731 14bd
000003f0: 54a0 733e 7daa 27be 4284 ae3d 9164 273e
-0.17327616 0.02246895 -0.16629814 -0.034290563 0.024105642 -0.0058314037 0.012198676 -0.018128805
0.095827036 -0.03843018 -0.17617841 0.2482176 -0.25661126 0.0050908984 -0.1446775 0.063761875
0.019613286 0.3498618 0.0018105025 -0.10085964 0.10724457 -0.30714178 -0.06197434 0.05256459
0.01722829 0.002668844 -0.008202407 0.110779725 -0.022894925 0.14344756 -0.20708348 -0.022305055
-0.03833622 -0.09959038 0.0076056765 -0.050260942 -0.16619906 -0.024713049 -0.11383135 -0.14277685
0.055745464 0.22431362 -0.03146965 -0.021718683 -0.20072259 -0.040224906 -0.335978 0.14315362
-0.1274738 -0.3449095 -0.33365175 -0.11596905 -0.23688167 -0.12138929 0.005913919 0.23918661
-0.13175592 -0.11595481 -0.19592781 0.061092243 -0.067434125 0.59966874 -0.0995224 0.1509083
-0.0893668 0.10942178 0.070986 0.19323358 0.48305196 0.052655548 -0.021592958 0.13689369
0.0040252623 0.0954795 -0.0365197 -0.08477182 0.03223064 -0.16678643 -0.014197149 -0.0058757504
0.148272 -0.10273121 -0.0024355534 0.029090902 0.100470684 0.068503164 0.080143325 0.018798485
0.14259504 -0.01014124 -0.10480282 -0.54456234 -0.109325126 -0.17201027 -0.008703647 -0.013335721
0.14240038 -0.0064852918 -0.026232393 0.058381155 0.03717963 0.08109299 -0.087324195 0.003899358
0.2033137 -0.013138427 0.029106522 -0.040088102 0.049238957 0.10316337 -0.024183689 -0.023166144
0.1894459 -0.057164468 0.23174943 0.16734113 -0.22103423 0.09665829 -0.094701104 -0.15221614
0.077986024 -0.005000876 -0.056626327 -0.088720255 0.053086333 -0.3204337 0.12544106 -0.029780746
0.25343993 0.28845343 -0.034868684 0.23625125 0.010786266 0.037454654 0.069328815 0.06412426
-0.060451165 -0.13802412 -0.14210384 -0.019838762 -0.14557327 -0.16478944 -0.23224923 -0.09223746
-0.01082753 -0.056288946 -0.072080344 -0.053003933 0.021013062 -0.037206896 -0.09344588 0.06316832
0.01444788 0.029291669 0.1971178 0.06974262 0.003861933 0.1675279 -0.07802729 -0.10795752
0.0055058976 0.2990057 0.116223894 -0.122161165 -0.18321131 0.00271883 0.033064034 0.019365763
0.038854472 0.15132366 -0.10741006 -0.15401195 -0.12915045 0.070445776 -0.18744445 0.021302886
-0.03394895 -0.19720875 -0.19233836 0.07782333 -0.18675885 -0.07581055 0.111723974 0.075546555
0.17238379 -0.14729671 0.04537482 0.00529818 0.030526549 -0.0507552 0.026235094 0.030081136
0.07089161 0.11753613 0.23708022 0.09426186 0.13035242 -0.09895757 -0.02699594 0.00045473952
0.052808512 -0.0060527385 -0.11702825 -0.03147188 0.068102084 0.06164351 0.12671399 -0.16803357
0.002791161 -0.029134445 0.12646161 0.27875227 0.077322856 0.028439162 0.2279487 0.09987713
0.044194248 0.08796793 -0.07918915 -0.19162464 0.16808641 -0.07140792 0.09540166 0.08686507
0.1917069 0.03701848 0.17031866 -0.026154272 0.054410987 -0.13198097 0.12006404 0.1954474
0.17058821 -0.13350983 0.07738041 -0.08878709 -0.03660768 -0.0033304056 -0.2169328 0.024381112
0.013648923 0.08529166 0.06505823 0.12131091 -0.24946867 -0.1719267 0.15590751 -0.053178497
-0.17025843 0.12828802 -0.042424854 -0.036180045 0.23791629 -0.1637363 0.0852132 0.16346957

egnn1.node_mlp.2.bias f4 [17]
00000000: 0bc5 0a3b 928a 20bd 4ce7 f0ba 4ee1 fa3d
00000010: d558 86bd 532c ac3d d085 263e 16d9 9c3d
00000020: 3cc9 163e a5ac d93c 4944 83bc 5c70 7f3e
00000030: 5535 69bd fbfe a0bd 7ea5 4ebd 953e c3bc
00000040: d484 c0bd
0.0021174576 -0.03919465 -0.0018379479 0.12250005 -0.06559912 0.08406892 0.16261983 0.07658593
0.14725202 0.026571581 -0.016023772 0.24945205 -0.056935627 -0.07861134 -0.050450794 -0.023833552
-0.09400335

egnn1.coord_mlp.0.weight f4 [128, 1]
00000000: 8e14 d83e 3cc3 b8be e4dd 3bbf cfbc c9be
00000010: 0837 763e 60f5 62be 0e08 3bbf a8a8 e83e
00000020: 1b44 773e 0046 0b3c 3879 c3bd dad5 23bf
00000030: e07e 35bf 945f 44bf 0723 0f3f 81a7 363f
00000040: b0f5 35bf 8c4a 1cbf 46b5 593f 47d7 253f
00000050: 1229 8c3d ce9f 45bf a071 c83e 7fa5 c83e
00000060: c063 bf3e 0037 a9bb 0809 10bf 802c 22be
00000070: 0240 c93e 0c9e 513f c83c 5a3f d64c 36bf
00000080: 00a8 593d 268f 30be bacc 8c3e 0443 47bf
00000090: 18ee 4dbe 11f6 843f 3c43 423f 89b4 6e3f
000000a0: 8041 17bd 3a50 30bf 5775 e13d 1c9d d63e
000000b0: e17d 263f ae66 4cbf 0793 5d3f 2150 523f
000000c0: a27f bd3e fd79 7e3e 0881 723f 13cf a43e
000000d0: 8775 7c3f 348a 6bbf 6064 f7be 0058 b3ba
000000e0: 95c4 4bbf 4040 b4bc 80ce ed3e 505f e93d
000000f0: 7870 a43e d996 94be 48f9 34bf dea3 6fbf
00000100: 91ef 56bf 0825 12bf 77df 8d3e ca8d 5ebf
00000110: b0b9 8ebe 1019 22be ac73 51bf 20fc 12bf
00000120: 866a 3cbf 7a54 4fbf b49d babe 7f00 023f
00000130: 5b34 283f c459 94be 52c8 7e3f 74a3 d73e
00000140: 1953 3d3f 8973 573f 682b 653e 081e 5ebe
00000150: 7319 4c3f 16ce 16bf d070 903e 7048 5abe
00000160: 6f41 f83e 76f1 1fbf 4748 68bf a8c0 393f
00000170: 2c2f 85be 7658 19bf 991b 5d3d b0be 993d
00000180: 6b89 e23d 8c33 9abe 4c2a 86be c0b7 2dbf
00000190: f1e7 b43e 0a3d 01bf 3cef 7abf 9c98 91be
000001a0: 5f1d a5be 871a 7b3f c019 903d dbe3 3b3f
000001b0: 8e65 8a3f 62a4 1b3f de9f 26bf a513 cfbe
000001c0: 38cb 26bf c49e 603f a20e 5abf bca6 09bf
000001d0: 353a 8e3e ff6e 033f 716e 4dbe 42ef 64bd
000001e0: c9f8 cc3e d5e3 723f dd50 60bf 8012 c0bd
000001f0: cdde 733f c003 b7bd 8c67 8cbe 3c6e 3b3f
0.42203182 -0.36086452 -0.73385453 -0.39401862 0.2404443 -0.22163916 -0.73059165 0.45441175
0.24147074 0.008500576 -0.09544605 -0.63998187 -0.7089672 -0.7670834 0.5591282 0.7134934
-0.71078014 -0.6105125 0.85042226 0.6478161 0.06843771 -0.7719697 0.3914919 0.39188763
0.3738079 -0.005164027 -0.5626378 -0.15837288 0.39306647 0.81881785 0.85248995 -0.7121099
0.053138733 -0.17242107 0.27499944 -0.7783663 -0.20110357 1.0387594 0.7588384 0.93244225
-0.0369277 -0.68872416 0.11008709 0.4191674 0.65035826 -0.79844177 0.8655247 0.82153517
0.3701144 0.24851222 0.94728136 0.32189235 0.9861683 -0.92007756 -0.48318768 -0.0013682842
-0.79596835 -0.022003293 0.4644661 0.113951325 0.32117057 -0.29021338 -0.70692873 -0.93609416
-0.839593 -0.57087755 0.27709553 -0.869351 -0.27876043 -0.15829873 -0.81817126 -0.5741596
-0.7360004 -0.80988276 -0.36448443 0.50782007 0.6570489 -0.28974736 0.99524415 0.42116892
0.7395492 0.8416067 0.2237984 -0.21691144 0.7972633 -0.5890821 0.2821107 -0.21316695
0.48487422 -0.62477815 -0.90735286 0.72559595 -0.26012552 -0.59900606 0.053981397 0.07507074
0.11061367 -0.30117452 -0.26204145 -0.67858505 0.35333207 -0.50483763 -0.9802129 -0.28436744
-0.3224897 0.9808735 0.070361614 0.73394555 1.0812242 0.60797703 -0.6508769 -0.40444675
-0.6515384 0.8774226 -0.8517858 -0.5377004 0.27778783 0.5134124 -0.20061661 -0.055892237
0.40033558 0.94878894 -0.8762339 -0.093785286 0.9526184 -0.08936262 -0.2742275 0.7321508

egnn1.coord_mlp.0.bias f4 [128]
00000000: 52e1 503f a0dd b6be 50df 79bf df27 843f
00000010: 845a 21bf 64e4 a2be b05e 76be f2af 413f
00000020: f089 33bd ac65 7fbf ba4c 393f 9c2e 75bf
00000030: e4fa b93e 98cf 4c3e 390e 84bd 5b21 62bf
00000040: 120d 3abf 2ae6 73bf 280a 58bf dbfe 593f
00000050: 4430 dc3e 80ec f03c c0eb 56bf 61f7 1f3f
00000060: 9e35 4fbf c05a 77bf 4064 13bd 282e 16bf
00000070: d091 d8be 5500 223e 91ed 88bf 5255 293f
00000080: cac3 5abf e29b 7a3f d772 9abe f400 fd3e
00000090: 40fc 13bd d4c7 bdbb 2db4 873f c06b 38be
000000a0: b604 6fbf b410 113f 04c1 aa3e ec48 753f
000000b0: 5661 093f 54ca 3b3f ecc4 c23e 6dff fe3e
000000c0: 8abf 863d 9250 88be 968c d5be 53cc cbbe
000000d0: 0ce0 603d 6018 febd 906b 74be c8e3 02bf
000000e0: 271e 7c3f 5492 ccbe 0b79 ae3e 10a1 84be
000000f0: 1f2c b53e 4c12 5d3f f0f2 8cbe ec16 5a3f
00000100: d46d 673f 904f 7e3e f229 39be ccee c0be
00000110: 0063 21bf 12ff 09bf ec1e 4abf 2838 1b3e
00000120: 683d 5c3e 7f51 5f3f a4db d0be 51f1 063f
00000130: 1493 793f 3647 573f d8ea 0bbe e2a9 6fbf
00000140: 50e3 453f b76e 11bf 2230 2abf 8c4a 42bf
00000150: 411a 2bbe 6c2f 873e 488c 24bf a082 1fbd
00000160: 6560 933e d087 77bf c219 7a3f e6ca 66bf
00000170: d8ac 7ebf 9c09 9c3e 5205 133e b8eb 41bf
00000180: 71d1 b03e 6830 21be e2c0 2ebf be61 26bf
00000190: 9b0d d83d 1e7c 21bf e8f7 483e 2250 3ebf
000001a0: 6cef 883f deee f8be dc4f e9be 7bdd 0c3f
000001b0: c575 283e 6cef b6bd 8ecb 183f 5a96 2c3f
000001c0: d897 47bf 6344 963d 60b6 98be 90aa fcbe
000001d0: 0ae7 553f cfab 603c 7fd8 603f f76c 9f3e
000001e0: 287d fc3e 4e1e 2e3e 8e3c 5e3f b4fc 45bf
000001f0: 48f5 83bf 12c7 58bf e034 84bd 31a3 223f
0.8159381 -0.3571596 -0.9760637 1.0324668 -0.6302874 -0.31814873 -0.24059558 0.75659096
-0.04383272 -0.99764514 0.723827 -0.95774245 0.36324227 0.20001066 -0.06448025 -0.88332146
-0.72676194 -0.9527308 -0.843905 0.85154504 0.43005574 0.029409647 -0.83953476 0.62486845
-0.8094119 -0.9662285 -0.035984278 -0.5866418 -0.42298746 0.15820439 -1.06975 0.66145813
-0.85455 0.9789411 -0.3016574 0.4941479 -0.036129236 -0.0057916436 1.060186 -0.18009853
-0.93366563 0.5666611 0.33350384 0.95814395 0.5366415 0.73355603 0.38040864 0.4980425
0.06579502 -0.2662397 -0.4170882 -0.39804325 0.054901168 -0.12406993 -0.23869157 -0.51128817
0.9848351 -0.3995539 0.34076723 -0.2590413 0.35385224 0.86356044 -0.27529097 0.85191226
0.9040196 0.24835038 -0.18082407 -0.37682188 -0.63041687 -0.5390483 -0.78953433 0.1515814
0.215078 0.8723373 -0.40792572 0.5271197 0.9749005 0.84093034 -0.13663805 -0.93618596
0.77299976 -0.5680956 -0.66479695 -0.75895 -0.16709234 0.26403368 -0.6427655 -0.038942933
0.2878448 -0.9669161 0.97695553 -0.9015335 -0.9948249 0.3047608 0.14357498 -0.75750303
0.3453479 -0.15741122 -0.68263066 -0.6499289 0.1054947 -0.6308001 0.19625819 -0.7434102
1.0698066 -0.4861974 -0.4556874 0.5502545 0.16451176 -0.08932385 0.596856 0.6741692
-0.7796607 0.073372625 -0.2982664 -0.4934888 0.8355566 0.013712837 0.87830347 0.3113782
0.49314237 0.17003748 0.8681115 -0.7733872 -1.0309229 -0.8467876 -0.064553976 0.6353026

egnn1.coord_mlp.2.weight f4 [1, 128]
00000000: 2990 a7bd 9e94 a93d 3789 9e3d 58ee dcbd
00000010: d7dd 3c3d 4a3c af3c c3b2 a63d 4a6e 29be
00000020: 1c7b 98bd 89d9 8e3d 29f4 e3bd 73f6 7a3d
00000030: cdee 97bd f5be 9e3d af78 3fbe 8935 813f
00000040: 26d5 f03c af86 2cbd 3f7e 7abd a29f 10be
00000050: 592c 1dbd a8c1 82bd 90e5 983d b29d babd
00000060: 3deb 2abc f22a 6ebc 1ea1 05bb db63 313c
00000070: ed86 05be 0562 bbbd 37f8 493f a4b6 803d
00000080: c323 853c 906f b5bd 4f0d 8dbe 1387 9f3d
00000090: d11f 183d c80f 0ebe 1a84 07be 86bb d1bd
000000a0: c7b6 2ebd 1273 2fbb 3539 0cbe ecc3 b9bd
000000b0: 96dd 30be f0c6 b13c bf5d 30be ae44 94bd
000000c0: df1e ecbd 7275 07be e9d6 3bbe db7c 973f
000000d0: 0d8d 9dbd ff73 4f3d 4f44 73b9 b63b 21bd
000000e0: d8e9 cb3f 7ff9 9ebd 5733 fdbd f903 cfbb
000000f0: cf9f 2dbe 094d 26be c543 b1bc f03d 853d
00000100: bb4a 22c0 d3e4 6abd 2417 48bd 241e 313d
00000110: 26c7 553c 69b9 063d 156b 133c 196e 59bd
00000120: b3cf e63c 32f9 19c0 2d3b 5bbd 0d4d c4bd
00000130: c4d0 37be 4b58 08be ae69 d3bd 2a3f a2bd
00000140: 349a f7bd 68b1 e9bd 949c 7dbd d165 88bd
00000150: 2236 16be b6d9 72bd 1758 72bd 4480 d8bc
00000160: 58a7 0bbe dcc8 a7bd 64f4 20c0 d7c0 993f
00000170: 7148 a43d 14e4 7a3d 51fe 0ebd 44a5 0f3c
00000180: ebe4 06be 2ab3 39bd c197 bbbc 15eb 08bd
00000190: e1fd 46be 12dc 0c3d cccd 0ebd fb7d 343d
000001a0: f61d 2cbe 2704 40be 99c2 9dbd 7b2d eebd
000001b0: 8240 1ebe 05e7 f8bd 1221 2e3d 5e89 a83c
000001c0: 66ee 8dbd d9f9 b4bd 76af 8a3d 6345 6b3d
000001d0: eb3a 8ebd a686 15bd 45bb 18be be5c bdbc
000001e0: a635 4abe 3e73 33be a4be 1b3d a7f5 393c
000001f0: 601c 45be 8b3d aabd f0fb c43c 0ad8 7bbd
-0.08181793 0.082802996 0.077410154 -0.10787648 0.04611 0.021391053 0.08139565 -0.16545978
-0.07445356 0.06975085 -0.11130554 0.06127019 -0.074185945 0.07751266 -0.18698381 1.0094463
0.029398512 -0.04212063 -0.061155554 -0.14123395 -0.03837237 -0.06384593 0.074656606 -0.09112109
-0.010432062 -0.014536606 -0.0020390223 0.01082703 -0.13039751 -0.09149555 0.7889437 0.06284836
0.016252404 -0.088591695 -0.27549216 0.07789435 0.037139717 -0.13873208 -0.13233986 -0.102408454
-0.04265478 -0.0026771468 -0.13693698 -0.09070572 -0.17272028 0.021701306 -0.17223261 -0.07239662
-0.11529326 -0.13228396 -0.183437 1.1834978 -0.07692919 0.050647732 -0.00023199733 -0.039363585
1.5930738 -0.07762431 -0.12363308 -0.0063176122 -0.16955493 -0.16240324 -0.02163876 0.06505954
-2.5358112 -0.05734713 -0.048850194 0.043241635 0.013047969 0.032891665 0.008997698 -0.053083513
0.02817521 -2.4058347 -0.05352323 -0.09585009 -0.17950732 -0.13314931 -0.10322891 -0.07922204
-0.12089959 -0.11410791 -0.061916903 -0.06660045 -0.14669088 -0.059289657 -0.05916604 -0.02642835
-0.13638055 -0.08192608 -2.5149164 1.2011975 0.080216296 0.06125267 -0.034910504 0.00876743
-0.13173263 -0.04533688 -0.02289951 -0.033427317 -0.19432785 0.034389563 -0.034864232 0.044065457
-0.16808304 -0.18751584 -0.07703132 -0.116297685 -0.15454295 -0.121534385 0.042512007 0.020573314
-0.069302365 -0.08836717 0.06771748 0.05743922 -0.069448315 -0.036505364 -0.14915188 -0.023115512
-0.19747028 -0.1752443 0.038023606 0.011350072 -0.19249105 -0.0831252 0.024045914 -0.061485328

egnn2.node_mlp.0.weight f4 [128, 35]
00000000: 09dc bc3d cd4d 253d ac4d 0f3d 54e9 2cbd
00000010: 5d57 d13d f4c4 f3bd ea59 4d3c 279c e8bd
00000020: 55d9 903d 42ec 3b3d 24c8 5f3d 936f 0cbd
00000030: c2af ff3d 59cb cfbd e99d 253e 7398 0f3b
00000040: 25f8 0ebe a937 1c3d da39 08be 97ad 0f3e
00000050: bc6e 1ebd be97 cf3d 842b 2cbe d8ef c93d
00000060: 8c40 12be 705f 6cbd 7ed1 85bd f698 e4bc
00000070: 6560 2bbe 129f f1bd 9feb d7bd 1e8a 083e
00000080: d335 a33d d8ab 1d3e 5308 0d3d 69e4 84bd
00000090: 6434 a4bc 57b8 03be 9911 8bbd 2b83 89bd
000000a0: 644c b83d 5f78 09bd 30e6 193e afbc d53d
000000b0: 807a 173e 087d 25bc 96e4 bdbd 834c 88bb
000000c0: 03f6 5f3e ce24 e9bc 05ca 413d cb64 30be
000000d0: d5a2 0bbd ace4 013e bd6a 06be 749c 2cbe
000000e0: 6a7b 283d c23c 1ebe 8c06 b5bc 5db3 dd3d
000000f0: 35d7 c2bd eb97 fcbd 72df d03d 718a 31be
00000100: aca5 b33d 7868 343e 7c69 b23d ca87 04be
00000110: 37af 023e f8f2 4b3e 8001 51be 06ea 85be
00000120: b5cb 18be 2782 2d3e f46b f7bd 8fe3 b83c
00000130: 386b 903d 2789 90bd baff c0bc 2fd7 13be
00000140: 84e1 ce3d 5d49 943d f5f8 c23d e802 32be
00000150: 2efb 63bd c2b8 cf3d 8d34 02be a006 dbbd
00000160: 7a06 25be 679b 3cbd 335a b0bc 019e ddbd
00000170: f51e 13be b3df 3d3e 3635 c53c 2b6e 8c3c
00000180: 2de2 c93d 3860 0bbe bcf6 ffbd 880b 9cbd
00000190: c184 2dbe 9e7c ac3b c99a 273e 57cc 123c
000001a0: 4b40 a23b 3314 8cbc c73a 7abd 0816 393e
000001b0: 33f3 8f3d a090 893e 415d 04be 4f89 443e
000001c0: 3ed6 84bd 693d 00be 32aa 1e3d 00e1 473e
000001d0: e681 2fbe 0f80 2b3d f1e6 163d dc86 133d
000001e0: b5ae c13d 827b 0fbd 9f3f ab3d 9a1e 95bd
000001f0: 9144 16bd 29d3 d13d e138 83bd 165e 3cbc
00000200: 811f 16bd 7cd0 603d c224 c3bd 5461 f63d
00000210: 4832 f1bd 69b1 e13d 8052 17be acc0 18be
00000220: d6cb 14bd c30e 32be 7f1f 0fbd 9fd1 15be
00000230: f251 8dbd 0fb8 71be f4bb 07be c4fe 1c3e
00000240: 0072 d63d f043 053d 649b d5bc 9122 1e3c
00000250: 85a3 883c 9fc6 783c c67b af3c 680c 753d
00000260: 6b65 283e 114f 1fbe b3ff 8a3d 014c 013e
00000270: 53a6 4ebe b9d0 52bc 7529 30be e61b b43d
00000280: 5d67 bd3d cb49 4d3e a46c e3bd f521 98bc
00000290: bcf3 48be 50cd 3cbe 3552 243d a91f b93d
000002a0: 7471 473d 0bd0 7e3e 5be5 babd 227a 17bd
000002b0: 268f 053e bb45 b13d c999 dc3d e457 84bc
000002c0: f13e 07be 890a 65bb 6fbd 05be 81dd 033e
000002d0: 608c fe3d 430a 5ebe 91d8 683d eb24 aebc
000002e0: 8a60 4ebe 3118 8f3d ccc8 5ebe 6ea9 cbbd
000002f0: 0c9f 7e3e bfb2 423b d756 2d3e 24ba bebd
00000300: 1cdb 613d 99f4 fa3d ed7e bb3d 207e a7bd
00000310: 2183 833c 9390 f4bd a47e e13d 8e66 cbbc
00000320: f3d6 78bb 90de 3e3e 9ca4 85bd cc37 793d
00000330: f369 943d eb02 743e 2d2b fabc 4974 46bd
00000340: 8a85 cf3d 77bb 923d b01c 083f 765a cd3a
00000350: c460 7c3e 9844 8ebe 55b6 3fbd 196c 213e
00000360: 85a9 133e 4144 1c3e 0af3 89bd 8b58 453a
00000370: cb42 f2bd de5f 27be 8693 b03e 9df0 d63d
00000380: 7fcf 033f 2f2b 6cbe 6ffc aa3c 373d 0fbe
00000390: 8422 443d 1f0b 843e 59f6 4b3e 7321 e83c
000003a0: 6fec 83bd 64ac 223e dbdf 1c3e 99ea 90bd
000003b0: edfb 133e fcce 653e 6231 dfbd 5d3a 443e
000003c0: 9f8b 693e 94d1 ef3d 5cbd 5bbe dc1e 84bc
000003d0: 90ec 9cbd da84 263c 7b3b 343d f20d 25bd
000003e0: 4cb0 4d3d 3dd2 3fbd 5d31 39bd 288e 2ebe
000003f0: 7b19 003e e3e9 ffbc 0f90 dabd f60d f7bd
0.09221656 0.0403574 0.034986183 -0.042214707 0.10221741 -0.119028 0.012533644 -0.11357909
0.07072703 0.04587961 0.05463423 -0.034286093 0.12484695 -0.10146207 0.16173519 0.0021910935
-0.13961847 0.03813902 -0.13303319 0.14031063 -0.038679823 0.101363644 -0.16813475 0.098602
-0.14282435 -0.057708204 -0.06534098 -0.027904969 -0.1673599 -0.117979184 -0.10542988 0.13333938
0.079692505 0.15397584 0.034431767 -0.06488878 -0.020044513 -0.12863289 -0.06790466 -0.067144714
0.08998945 -0.03356206 0.15029216 0.10436379 0.14792824 -0.010100611 -0.09272115 -0.0041595115
0.2187119 -0.028459933 0.0473118 -0.1722595 -0.034090836 0.12684888 -0.13126655 -0.16856557
0.04113332 -0.15452865 -0.022097848 0.108252265 -0.09513704 -0.123336636 0.10198869 -0.17337967
0.08771834 0.17617977 0.08711526 -0.12942424 0.12762152 0.19916904 -0.20410728 -0.26155108
-0.14921458 0.1694418 -0.12081137 0.022569446 0.070517 -0.0705741 -0.02355944 -0.14437555
0.101016074 0.072405554 0.09520141 -0.17383921 -0.055659465 0.10142662 -0.12715359 -0.10694623
-0.16115752 -0.04604664 -0.021527385 -0.108211525 -0.14367278 0.18542366 0.024073225 0.017142376
0.09857593 -0.13610923 -0.12498233 -0.07619387 -0.16945173 0.005263879 0.1636764 0.008959851
0.004951512 -0.017099475 -0.06109121 0.1807481 0.070288084 0.26868153 -0.12926199 0.19193004
-0.06486176 -0.12523426 0.03873653 0.19519424 -0.17139396 0.041870173 0.036841337 0.036017284
0.09457151 -0.035029896 0.08361744 -0.072812274 -0.036686484 0.10245354 -0.06407333 -0.011497041
-0.03665114 0.054886326 -0.09528495 0.120302826 -0.117771685 0.110201664 -0.14777565 -0.14917248
-0.036327206 -0.17388444 -0.034942146 -0.14630745 -0.069003955 -0.23605369 -0.13255292 0.1533156
0.104709625 0.032535493 -0.026075073 0.009651796 0.016679535 0.015184074 0.021421324 0.059826285
0.16444938 -0.15557505 0.06787052 0.1262665 -0.20180635 -0.012867146 -0.17203315 0.08794384
0.092482306 0.20047681 -0.11104706 -0.01857088 -0.19624227 -0.18437696 0.04011746 0.09039242
0.04869218 0.2488405 -0.09125777 -0.03698171 0.13042888 0.08655878 0.1077152 -0.01615519
-0.13207604 -0.0034948906 -0.13060544 0.12877466 0.12429118 -0.21683602 0.05684716 -0.021257838
-0.20154014 0.06987036 -0.21756285 -0.099444255 0.24865359 0.0029708592 0.16927658 -0.09312847
0.0551406 0.122536846 0.091550685 -0.08178353 0.016053738 -0.11941638 0.11010483 -0.024829175
-0.0037969917 0.18639588 -0.06525537 0.060844228 0.07246771 0.23829238 -0.030538166 -0.048450742
0.101328924 0.07164662 0.53168774 0.0015667218 0.24646288 -0.27786708 -0.046804745 0.15763892
0.14420135 0.15260412 -0.06735809 0.00075281475 -0.11829146 -0.16345164 0.3448755 0.10495112
0.5148849 -0.23063348 0.020872323 -0.13988195 0.04788448 0.25789735 0.19918193 0.028336262
-0.064415805 0.15886074 0.15319769 -0.07075996 0.14451571 0.2244224 -0.10898091 0.19162889
0.22807167 0.11709896 -0.21458954 -0.016127996 -0.07662308 0.01016351 0.044002037 -0.040296502
0.050216958 -0.04683136 -0.045213092 -0.17046416 0.1250972 -0.031239456 -0.10672008 -0.1206321

egnn2.node_mlp.0.bias f4 [128]
00000000: bd68 1ebe a908 adbd c6c1 f7bd 66ac 8f3d
00000010: 2b6a 913d 2038 8fbe bbba 85be 2c9f 3dbe
00000020: 8ce0 1a3e 98fe e5bd 84f0 853e 965d 76bd
00000030: 2506 7dbe 7342 8bbe d07e cc3c c7c4 26bd
00000040: 7ad6 2ebe 181b 2fbe d6e0 01be b260 babd
00000050: 4d86 a0bd 2cf9 b6bd e1a2 c939 e572 043c
00000060: a551 99bc 273b 073e 08ad 85be d5ee bb3c
00000070: 0bf7 1d3e ad10 33be 4916 2ebe b7b0 00be
00000080: 176b 74bd 5ba3 ed3d e587 3d3d c8f6 20bd
00000090: 8a31 6dbe 8174 c23c 3e83 823c 85bc 8f3b
000000a0: 5e1d eb3d f2e8 713e 011c ca3a cce0 61bc
000000b0: 99db 97be ba19 33be 319b 61bc 8057 983d
000000c0: e6be b7bb ba22 3a3e ede0 4ebe dbe7 cf3e
000000d0: 64d5 96be e3cc 583e 5297 62bd 79dd 93bc
000000e0: 5a69 3c3e 4f43 a43d fa64 25be cd90 37be
000000f0: d17e ffbd 37b2 06be d413 7dbc 387d bebe
00000100: 10ce 9fbe 7d57 11bd 568a 0abd 2104 8ebd
00000110: cc7a af3a 713c 88be 70e2 3e3d 4ee4 5abe
00000120: ca13 e23c 35da 3bbe 5fc8 e1bd 03bf ef3d
00000130: e3a3 63be 42bd 10be fbea e53d 8bb7 bd3e
00000140: fc61 d9bd 9bcf 71bd c05d 12be 0524 67bd
00000150: 49ba b0bd a31b 3c3e 554e 41be 91de 24be
00000160: 15b8 c3be 4216 03be 6b2c 203e 865e 203c
00000170: c082 e4bd 9285 74bd 59d2 a93d 3db2 23be
00000180: 8183 89bd 2a30 e23d 9d5f c7bd 41d6 a93e
00000190: b1aa 85be eea5 4f3e f89f f93d 8f7f 14be
000001a0: 651c 713d f1c2 babd e1de b03d c735 2a3d
000001b0: a641 4fbe 5881 c13d 441a cb3d 3dac 0c3e
000001c0: 0c10 bcbd 48ed 22be b1a5 1fbe b02d 03be
000001d0: 6e53 b3bd b2f6 a0be fa6a 883e ac4f 41be
000001e0: 21e5 263e decf 8c3d 5835 ac3d a82c 36be
000001f0: 95e3 dc3d 381c 92bd c545 7f3e 546a 39bd
-0.15469642 -0.084489174 -0.12097506 0.07015304 0.07100328 -0.27972507 -0.26119027 -0.1851775
0.1512472 -0.112302005 0.2616006 -0.060147844 -0.24709375 -0.27199134 0.024962813 -0.040715005
-0.17074004 -0.17100179 -0.12683424 -0.091004744 -0.07838116 -0.089342445 0.00038459062 0.008084034
-0.018715689 0.13206159 -0.26108575 0.022941032 0.1542627 -0.1748683 -0.17000689 -0.12567411
-0.05967244 0.11603423 0.046272177 -0.03929785 -0.23163429 0.023737194 0.015931722 0.004386487
0.11480211 0.23624018 0.0015419723 -0.013786506 -0.29659727 -0.17490283 -0.013769911 0.07438564
-0.0056074737 0.1817731 -0.2020299 0.4060658 -0.2945968 0.21171908 -0.05532009 -0.018049942
0.18399563 0.080206506 -0.16151801 -0.17926331 -0.1247536 -0.13153921 -0.015446622 -0.3720491
-0.312119 -0.035483826 -0.033823334 -0.06934381 0.0013388037 -0.26608613 0.046602666 -0.21376154
0.027597327 -0.18344958 -0.11024546 0.117063545 -0.22230487 -0.14134696 0.112264596 0.37054095
-0.10614392 -0.05903588 -0.14293575 -0.056430835 -0.08629281 0.18369918 -0.18877538 -0.16100527
-0.3822638 -0.1280146 0.15641944 0.009788161 -0.11157751 -0.059697695 0.08292074 -0.15985961
-0.067145355 0.11044343 -0.09735034 0.33171275 -0.2610679 0.20278141 0.12188715 -0.14501785
0.05886497 -0.09119213 0.08636261 0.041555192 -0.20239887 0.094484985 0.09917119 0.13737579
-0.09182748 -0.15910828 -0.1559055 -0.12810397 -0.08756147 -0.31438214 0.26644117 -0.18878049
0.16298343 0.06875585 0.08408612 -0.17790473 0.10785595 -0.071342885 0.24928959 -0.045267418

egnn2.node_mlp.2.weight f4 [17, 128]
00000000: e4d1 073d 0aa3 e2bb 0aa9 4d3c a399 1abd
00000010: 8773 a83c 24d2 153d 3e42 fe3e 35dc b2bb
00000020: 75bc 28be 69d1 12be 67ef e2bd 9fcd ef3c
00000030: b5f7 893b 83a2 3a3b c415 d03d 236c e13b
00000040: 8cdb d83c b4ca c2bb 3fa9 eb3d a8b6 2d3f
00000050: 78fd 6f3d ea77 f0ba f9a6 eb3d 8253 15be
00000060: b1d6 80bf 9025 6a3d 8add 85bc b676 853e
00000070: 0525 a3bd d8d2 adbd 50c6 3c3c fd0b ebba
00000080: 435b 1a3e 4daa 49bd 76cc e63d 3596 a33b
00000090: e80b 093b 48b8 2f3b 9fb9 29bd 1f0f 433d
000000a0: e5d7 a63c 1048 3ebc 2571 893c 8921 003b
000000b0: f9d2 35ba 1b55 38bc cd8d 04bc b6fe 983c
000000c0: 6f32 25bd d13d 8abc 0d3c 8abc de43 19be
000000d0: a233 b0bc 4e47 b7bb 3312 023d 084b d23c
000000e0: b0b8 673d d645 05bb a5a3 313c d8b5 dbbb
000000f0: 1a48 a03f dbdc 0e3c ddf5 113e 12fb f63d
00000100: 484b 72be 1692 ed3e ad72 973e f8ca 323f
00000110: 0023 823d cfc0 093d f99f 823c eff4 29be
00000120: 919d cebc 166a dabb 3f52 19bd 86f9 34bc
00000130: c4ae 36bd 1217 40be 73a3 7fbd 4559 80be
00000140: 3dd7 11bc 6c51 2039 7bc4 373e 560f eabc
00000150: 169a e6be e835 ba3d afd3 8b3c b5de 0e3b
00000160: 01b3 6e3b 7574 f6bc 1f04 10bd 359c e53d
00000170: 160a 4dbb 887f a13d 58ab 2239 4bd6 75bc
00000180: 4d66 cc3c 63e4 0ebc 3090 9dbc 0c98 993b
00000190: 78ba 30bd cce0 87be d7ab 603c 8cf5 383e
000001a0: 0571 553b 6d8d 793c 537e b6bb 04a8 9d3d
000001b0: a491 72be e436 de3b d6e2 d8be c443 85bb
000001c0: cacd 3bbb e105 efbb 9af6 be3a 0493 803a
000001d0: 5fdb c8bc 5465 b5bc c235 1c3d 8a65 b4bd
000001e0: a0ff 5dbb 8e58 f73b 5889 3dbd cbba 2f3f
000001f0: dd64 943c 1ce7 9a3b 4dd6 bebe d62c b73e
00000200: 71b6 5abc eda6 0abe e1c3 97be d0d0 e7bd
00000210: 3196 c9bc ca6f f23d 46cb a53d 0878 febd
00000220: 9879 acbd 43e8 d4be ee62 8e3e fc5e 53bd
00000230: ca6b 6b3d 6c49 6c3d d131 e0bd 304d 43bd
00000240: 73c9 2c3c c28d 90bd c10c 27bb c3e1 13be
00000250: 8ced ab3e d5b0 0d3f bb10 1f3d 281e 55bd
00000260: 37a4 5ebe 1b56 353e 0e52 533e 98ef b5bf
00000270: 25f0 dd3d f5dc 58be a462 dc3d 84c7 f03d
00000280: 2b4d b1ba 07fd 8cbf a376 d8be 364f 85be
00000290: d0a7 213d 8543 6f3d 67b6 0d3e 9982 a6bd
000002a0: ce97 f73d 69b1 583e 267c 2fbb 357b 13be
000002b0: 787e f53b e4fb d13b 35ce a13d 94ab c4bd
000002c0: d452 723c 0386 243a 7bb2 d33b 40fa 8cbe
000002d0: 76bf 8e3e 4da8 1d3e efa8 053e da19 223d
000002e0: 45b8 25bc 753b 593e 31d6 88bf b2ba 3fbc
000002f0: cee0 e3bd 5198 043e 2569 1fbd e6da d4bc
00000300: 8d91 efbd 9eb1 54be 4304 00be 7387 acbd
00000310: 6267 7d3d d347 3f3d 6037 79bd e152 83be
00000320: d44e 1d3d f599 eabc a338 6abd d643 81be
00000330: b9a6 59bc 345b 08be 63e4 d6bd 71c3 dcbd
00000340: 56dd 97bd fd7a c63d e729 c7bd f36e 2b3d
00000350: 3a81 23bd f49d 093e 43c5 a13c 0733 02be
00000360: 2d69 0abe 45e3 983d 5251 b23d 9ec1 283d
00000370: c2ef 093e c1e0 843d 51b1 a9bc 4d0a a3bc
00000380: f3c1 bcbc 5a0a 483b 7335 a33d ef1e 523e
00000390: 4890 773e dd8a 23be 0ee1 75bc b114 f6bc
000003a0: 0f8a 0ebe 7eeb debb e7fe 2ebe 66ba d83d
000003b0: 0833 05bd 86d8 413e 090c 93be cdb7 babd
000003c0: 55b6 923d b951 16bf 9b99 a9bc 2dc0 c33d
000003d0: 4c89 913d 25d6 303b b7a0 b6bd c8bc 18be
000003e0: 2cf8 213e 009c 8e3e f2fa d23d d331 c2be
000003f0: 9732 94bf 8110 ba3c 4af5 3fbe 4e8f 3f3e
0.03315915 -0.0069164084 0.012552509 -0.037744176 0.0205629 0.03657736 0.49659914 -0.0054583796
-0.1647814 -0.14337696 -0.110808186 0.029272852 0.004210437 0.0028478212 0.101604015 0.006879346
0.026471876 -0.0059445743 0.115068905 0.67856836 0.058591336 -0.0018346284 0.11506457 -0.14582637
-1.0065519 0.05716473 -0.01634099 0.26067132 -0.07966045 -0.08487481 0.011521891 -0.001793265
0.15073876 -0.049234677 0.112694666 0.0049922713 0.0020911638 0.002681272 -0.041436788 0.047621842
0.020366618 -0.011613861 0.016777584 0.0019551239 -0.00069360394 -0.0112507595 -0.008090449 0.018676143
-0.0403313 -0.01687518 -0.016874338 -0.14967296 -0.021508995 -0.005593217 0.031755637 0.025670543
0.056572616 -0.0020335815 0.010842239 -0.006705027 1.2522004 0.008719648 0.14253946 0.120596066
-0.2366153 0.46400517 0.29579678 0.69840956 0.06354332 0.033631142 0.015945422 -0.16597341
-0.025221618 -0.0066654785 -0.03743195 -0.011045819 -0.044600263 -0.187588 -0.062411737 -0.25068107
-0.008901414 0.00015289121 0.17946045 -0.028571766 -0.45039433 0.09092313 0.017068712 0.0021800224
0.0036422613 -0.030084828 -0.03516018 0.11211435 -0.003128653 0.07885653 0.00015513354 -0.015004705
0.024951125 -0.008721444 -0.019233793 0.004687315 -0.04314658 -0.26538694 0.013712845 0.18062419
0.0032568586 0.015231472 -0.0055692582 0.07698062 -0.2368837 0.006781446 -0.42360562 -0.004066916
-0.0028656595 -0.007294402 0.0014569343 0.0009809439 -0.024518667 -0.022143044 0.038137205 -0.088084295
-0.0033874288 0.0075483983 -0.04627356 0.686444 0.018114502 0.0047272574 -0.37272874 0.35776395
-0.0133491615 -0.1354024 -0.2964163 -0.11319125 -0.02460775 0.11837728 0.08095412 -0.12425238
-0.0842163 -0.41583452 0.27809852 -0.051604256 0.057475843 0.057687208 -0.10947002 -0.047681034
0.010546076 -0.07058288 -0.002548978 -0.1444159 0.3357967 0.5534795 0.038834315 -0.052030712
-0.2174233 0.17708628 0.2063677 -1.4213743 0.108368196 -0.21178038 0.10761002 0.117568046
-0.0013527026 -1.1014718 -0.42278013 -0.26036996 0.03946668 0.058414 0.13839112 -0.08130378
0.12089501 0.21161427 -0.002677688 -0.14402469 0.007491883 0.0064082015 0.07900659 -0.096030384
0.014790256 0.0006276073 0.0064604855 -0.27534676 0.27880448 0.15396233 0.13052724 0.039575435
-0.010114734 0.21214087 -1.0690366 -0.0117022265 -0.111268625 0.12948729 -0.038918633 -0.025983285
-0.116976835 -0.2077088 -0.12501626 -0.084242724 0.06186617 0.046699356 -0.060843825 -0.2564917
0.038405254 -0.028637866 -0.05718292 -0.25247067 -0.013284379 -0.13316041 -0.1049278 -0.10779465
-0.07415263 0.09691427 -0.09724789 0.041853856 -0.039918162 0.1343916 0.019747382 -0.12714778
-0.13516684 0.07465223 0.08706917 0.041200273 0.13470367 0.06488181 -0.020714434 -0.019902373
-0.023041701 0.0030523748 0.07969179 0.20519613 0.24176133 -0.15970941 -0.0150072705 -0.030039163
-0.13919853 -0.006802975 -0.17089425 0.10582428 -0.03251937 0.18930253 -0.2872012 -0.091170885
0.07163683 -0.5871845 -0.020703128 0.09558139 0.071062654 0.002698311 -0.08917373 -0.14915764
0.15817326 0.27853394 0.1030177 -0.37928638 -1.1577939 0.022712948 -0.18745914 0.1870701

egnn2.node_mlp.2.bias f4 [17]
00000000: e8a6 7bbd 61f4 233e e9a7 8dbe 2b43 40be
00000010: 0c78 1dbe b736 b7bd 627f 073e db1c 003e
00000020: 30cf bf3d 5b91 373e 89e5 aa3d 6c65 de3d
00000030: 21ca 0c3e 2d38 bf3d 6417 cdbd 205b 8bbd
00000040: 58c6 65be
-0.06143847 0.16011192 -0.27667168 -0.18775623 -0.15377825 -0.08945983 0.13232186 0.12511007
0.0936569 0.17926542 0.083445616 0.108591884 0.13748981 0.093368866 -0.10014227 -0.0680449
-0.22438943
