models/constrained/olfactory_conditioner_state_dict.pth (torch, 6190 bytes, 2 tensors)

embedding.weight f4 [8, 138]
-0.10948838 0.020854525 0.043467022 0.005764174 0.032228455 -0.061909653 0.00633236 0.009251702
-0.015550068 0.047538888 -0.053601317 0.019044263 0.040064123 0.004407046 -0.035434373 0.09427232
0.015324533 0.04950994 0.03840183 -0.14048295 0.061757654 -0.021254046 -0.0037452297 -0.024627008
0.015109168 0.0023405727 -0.0836446 -0.06723177 -0.02005213 0.07849971 -0.086791106 -0.002779626
-0.14102912 -0.009371456 -0.009099172 -0.01969057 0.013002113 0.011579414 0.013865293 0.060346678
0.0054418347 0.063078605 -0.012035938 0.05619527 -0.014873647 -0.019259226 -0.05215456 -0.040954452
0.021556854 0.037221987 -0.04244616 -0.027994106 0.06226301 -0.006183127 0.14567873 -0.10917834
-0.017123807 -0.044902276 0.05661272 -0.06614849 0.020646421 0.0047327145 -0.06907761 0.0028945105
-0.018557353 -0.03357172 -0.039886188 -0.110294856 0.05838066 -0.031982943 -0.013360113 -0.11789811
-0.073506474 -0.007603006 -0.04065415 -0.01836272 0.058579084 0.16997692 -0.0024839924 0.012570983
0.04669463 -0.10449845 -0.024627078 -0.05568745 -0.040265173 -0.011300116 -0.056236286 0.045110665
0.013719954 0.10632031 0.019543113 0.09239292 -0.047963 0.007394128 -0.04101539 -0.013825798
-0.001705187 -0.022743598 -0.0415098 0.0038580634 0.0061969105 0.05225226 -0.058791224 0.019017907
0.0202782 -0.011900619 -0.04405566 0.04958318 -0.07092834 0.06955928 0.03437626 0.018258285
-0.07603413 -0.061827794 -0.05987327 0.0028396994 -0.013365099 -0.026045294 -0.01719857 -0.13303526
-0.0064106034 -0.091418706 -0.0060493513 -0.008869898 0.08491588 -0.051609322 0.064928584 -0.032600448
-0.025065523 -0.047361203 0.024742726 -0.05770022 -0.01453906 -0.054198425 -0.033358052 0.0022131782
-0.09951184 -0.01075189 0.043041512 0.04271721 0.019770797 0.02072715 0.1171141 0.012951688
0.029517965 -0.0139417155 -0.01936794 -0.0542224 -0.027711982 0.0015790749 -0.08736606 -0.017839259
0.033988744 -0.00069346273 0.031195283 0.11757061 0.023741862 -0.10382478 -0.051788222 0.059586927
0.026475623 -0.034693554 0.09134393 0.01421126 0.06430096 0.013288022 0.039941408 0.111762874
-0.06277964 0.0016986441 -0.06796556 -0.03140157 -0.0460671 -0.046846606 -0.055100456 -0.050729886
-0.0039839265 0.009722629 0.014294452 -0.07660652 -0.01824602 -0.033552993 -0.013506826 0.01341423
0.054368597 0.009830348 0.05787969 0.030305298 0.045512885 -0.03552873 0.0036737614 -0.0122058615
-0.038111594 -0.18737966 -0.17443441 -0.012232059 0.065481015 0.0131884925 -0.092627935 0.002241296
0.06896788 0.03415141 -0.046298 -0.054649528 0.07251872 0.019082332 0.03247274 0.050901707
0.00621009 -0.1593055 0.06887036 0.048794743 -0.052172016 0.018080372 0.07419171 0.0155193675
0.003866417 0.0056705084 0.04378185 0.1003685 -0.057667833 0.04808623 -0.018706469 -0.11789222
0.002483241 0.075329326 -0.012102243 -0.2664451 0.029211694 0.08047502 0.0038972415 0.05228464
0.013602442 0.09569386 0.02058597 0.06236291 -0.042605482 0.08457217 0.041250568 0.041019287
-0.062322684 0.0003982337 -0.079506725 -0.16281368 0.0492681 -0.05569451 -0.01428343 0.05197279
-0.023040185 -0.021964245 0.015747322 0.07008037 -0.07172994 -0.056027755 0.028003242 -0.052779824
00000000: 723b e0bd 1cd7 aa3c 7a0a 323d 65e1 bc3b
00000010: fc01 043d fa94 7dbd b07f cf3b 7394 173c
00000020: b6c5 7ebc 23b8 423d 0e8d 5bbd b702 9c3c
00000030: 471a 243d fb68 903b a223 11bd d911 c13d
00000040: c013 7b3c efca 4a3d 3d4b 1d3d c3da 0fbe
00000050: 98f5 7c3d f71c aebc 8772 75bb 94be c9bc
00000060: 728c 773c 4b64 193b dc4d abbd cfb0 89bd
00000070: 5d44 a4bc 75c4 a03d 89bf b1bd 632a 36bb
00000080: f069 10be bc8a 19bc b214 15bc 1e4e a1bc
00000090: d106 553c 95b7 3d3c 412b 633c 142e 773d
000000a0: 6b51 b23b 5b2f 813d 6232 45bc 032d 663d
000000b0: 99b0 73bc 86c5 9dbc 05a0 55bd dbbf 27bd
000000c0: 0098 b03c 1576 183d 06dc 2dbd e553 e5bc
000000d0: 7f07 7f3d d49b cabb ce2c 153e e598 dfbd
000000e0: 3a47 8cbc 73eb 37bd bde2 673d dc78 87bd
000000f0: af22 a93c e314 9b3b 9078 8dbd d4b1 3d3b
00000100: 9705 98bc 8082 09bd b35f 23bd 45e2 e1bd
00000110: 8f20 6f3d 8c00 03bd 60e4 5abc 9074 f1bd
00000120: 908a 96bd a322 f9bb f784 26bd 6a6d 96bc
00000130: 9ff0 6f3d 6e0e 2e3e 7aca 22bb 86f6 4d3c
00000140: de42 3f3d 4903 d6bd babe c9bc 8618 64bd
00000150: 18ed 24bd 1f24 39bc 0558 66bd f6c5 383d
00000160: a8c9 603c 76be d93d e118 a03c 8038 bd3d
00000170: da74 44bd 714a f23b c1ff 27bd 9a85 62bc
00000180: 9580 dfba c850 babc 2e06 2abd 90d7 7c3b
00000190: 740f cb3b 7706 563d 11cf 70bd 71cb 9b3c
000001a0: 781e a63c d0fa 42bc b573 34bd bc17 4b3d
000001b0: e142 91bd 1975 8e3d 1fce 0c3d 6692 953c
000001c0: c8b7 9bbd 243f 7dbd ad3d 75bd 401a 3a3b
000001d0: 4af9 5abc f15c d5bc 04e4 8cbc 653a 08be
000001e0: 0a10 d2bb bb39 bbbd a339 c6bb 0c53 11bc
000001f0: 60e8 ad3d 4c64 53bd 47f9 843d 0c88 05bd
00000200: 3656 cdbc d2fd 41bd 42b1 ca3c 1157 6cbd
00000210: 3d35 6ebc 2bff 5dbd 74a2 08bd f80a 113b
00000220: ddcc cbbd b228 30bc 4c4c 303d 3ef8 2e3d
00000230: 5ef6 a13c fccb a93c 84d9 ef3d 5133 543c
00000240: a9cf f13c cb6b 64bc 84a9 9ebc 4f18 5ebd
00000250: 3d04 e3bc f6f8 ce3a faec b2bd a323 92bc
00000260: c837 0b3d 7fc9 35ba 408d ff3c dcc8 f03d
00000270: 4b7e c23c 16a2 d4bd e31f 54bd 6c11 743d
00000280: 68e3 d83c d41a 0ebd 8712 bb3d 58d6 683c
00000290: 39b0 833d 01b6 593c 9a99 233d efe3 e43d
000002a0: 9d92 80bd 0aa5 de3a 8731 8bbd ef9e 00bd
000002b0: dbb0 3cbd 3ae2 3fbd 04b1 61bd 24ca 4fbd
000002c0: 998b 82bb a94b 1f3c 4733 6a3c e1e3 9cbd
000002d0: ad78 95bc dd6e 09bd bc4b 5dbc 5cc7 5b3c
000002e0: 9bb1 5e3d 780f 213c 4113 6d3d d142 f83c
000002f0: b86b 3a3d 9386 11bd 7dc3 703b 18fb 47bc
00000300: e71a 1cbd 74e0 3fbe ef9e 32be f968 48bc
00000310: e91a 863d 8c14 583c b7b3 bdbd b5e2 123b
00000320: 083f 8d3d 59e2 0b3d f9a2 3dbd 2fd8 5fbd
00000330: b284 943d 8d52 9c3c 2302 053d 4f7e 503d
00000340: 037e cb3b fb20 23be e70b 8d3d ffdc 473d
00000350: 53b2 55bd 4a1d 943c d3f1 973d f244 7e3c
00000360: b763 7d3b accf b93b 9954 333d 008e cd3d
00000370: 1b35 6cbd 11f6 443d 4f3e 99bc 7a71 f1bd
00000380: dfbd 223b 4346 9a3d 7c48 46bc 7e6b 88be
00000390: 5d4d ef3c 16d0 a43d dd68 7f3b 6b28 563d
000003a0: c7dc 5e3c 24fb c33d e8a3 a83c 4070 7f3d
000003b0: 1683 2ebd 2d34 ad3d 5bf6 283d d703 283d
000003c0: 1246 7fbd 06ca d039 6cd4 a2bd a1b8 26be
000003d0: 59cd 493d ed1f 64bd 0c05 6abc 6ce1 543d
000003e0: c5be bcbc 5cee b3bc 8700 813c 4c86 8f3d
000003f0: 26e7 92bd 5c7d 65bd 0e67 e53c a82f 58bd

embedding.bias f4 [8]
0.15229811 -0.15083161 0.15613936 -0.25497803 -0.1931928 0.09377444 -0.022752054 0.17114764
00000000: 09f4 1b3e 9a73 1abe ffe2 1f3e 7b8c 82be
00000010: 55d4 45be d00c c03d 8462 babc 5441 2f3e
