models/unconstrained/egnn_unconstrained.pth (torch, 87570 bytes, 24 tensors)

weight f4 [32, 1]
-0.24882829 0.14684486 -0.061097503 -0.68235576 0.55939436 -0.5313571 -0.108994246 1.0576315
0.15905254 -0.25166893 0.703007 -0.6440786 -0.8527398 0.20974103 -0.9231789 -0.5643536
-0.78677344 0.33364952 0.24585952 -0.60510945 0.10999178 -0.06795573 -0.55824244 0.7778406
0.051068783 -0.2745763 -0.38017714 0.25301513 0.3219995 -0.91181195 1.0342644 -0.41602093
00000000: d8cc 7ebe 805e 163e 6041 7abd deae 2ebf
00000010: 7834 0f3f 0507 08bf 6038 dfbd 7860 873f
00000020: abde 223e c0da 80be 44f8 333f 56e2 24bf
00000030: 284d 5abf 5ac6 563e 7455 6cbf 7a79 10bf
00000040: fc69 49bf 1cd4 aa3e 99c2 7b3e 74e8 1abf
00000050: 5f43 e13d 602c 8bbd fae8 0ebf 9020 473f
00000060: 802d 513d 4495 8cbe 94a6 c2be 338b 813e
00000070: 1edd a43e 826c 69bf c762 843f b200 d5be

bias f4 [32]
-0.99506164 -0.69568276 -0.046535015 -0.9801067 0.37631693 0.65261817 -0.3529669 -0.015547006
0.892991 -0.91923785 -0.39357254 0.2169212 -0.4090464 0.95866007 0.4903065 0.55228245
-0.74272513 -0.925568 0.17281353 -0.4932407 0.7760041 -0.1601013 0.37982044 -0.23848858
-0.4216137 -0.7176397 -0.5957918 0.2958011 -0.0044172266 -0.3158002 1.0025985 0.36398223
00000000: 5cbc 7ebf 4418 32bf 809b 3ebd 46e8 7abf
00000010: 9dac c03e fc11 273f 14b8 b4be dfb8 7ebc
00000020: 0f9b 643f 2c53 6bbf 5782 c9be 9720 5e3e
00000030: 886e d1be bf6a 753f 7409 fb3e 6262 0d3f
00000040: 3c23 3ebf 06f2 6cbf 08f6 303e 0c8a fcbe
00000050: 34a8 463f 98f1 23be d377 c23e 5a36 74be
00000060: c0dd d7be 3cb7 37bf d085 18bf 3e73 973e
00000070: 62be 90bb 90b0 a1be 2655 803f e15b ba3e

weight f4 [8, 32]
-0.12235211 -0.12373265 -0.015342991 -0.08057953 -0.061225347 0.118282795 -0.040731642 0.19028594
0.09139221 0.059428405 0.1365268 -0.11297642 0.072472245 -0.07535886 -0.23566812 -0.047440324
-0.099019654 -0.1411241 0.17946272 0.13831519 0.10985956 0.17100872 -0.14364126 -0.008912056
-0.12706865 -0.13285646 -0.06465103 0.097496845 -0.06678501 0.023874503 0.07791055 -0.09825267
0.04828206 -0.046062037 -0.03381393 0.15524328 0.21593224 -0.11924412 0.005505137 0.3126102
-0.13200043 0.09881221 0.13417639 -0.11599243 -0.05915898 0.045783818 -0.26179245 -0.2597675
0.042998403 0.105968975 -0.014026824 -0.14911978 -0.07964247 -0.11833286 0.02320064 0.21318987
0.04066332 0.105372116 -0.002399673 -0.1335763 0.27456328 -0.011549227 0.15467517 -0.12543042
0.024298817 -0.13885707 -0.014237121 -0.07568925 0.19622117 -0.14141975 0.041564338 0.34059113
0.17882586 0.05427831 -0.09466422 -0.10076813 -0.04540343 -0.10094198 -0.0370019 -0.057285883
0.13830765 0.07949724 0.07421375 0.045434576 0.018815503 -0.032434866 -0.16036274 -0.14093761
0.107607014 -0.014464819 0.10555697 -0.0009568932 0.274254 0.1498496 0.23633926 -0.12419374
0.101532094 0.098962314 0.09626439 -0.10161856 0.08472765 -0.18472098 -0.14027822 0.24586841
0.1470256 0.054897595 0.083922535 -0.29334697 -0.122156925 0.009656104 -0.06047274 -0.19501375
-0.01385643 0.0066538705 -0.14853528 -0.17426689 -0.19168893 0.030475311 -0.23792902 0.17452362
-0.084278226 -0.14483705 -0.10085644 0.12872034 0.05018349 0.13795397 -0.08183081 -0.26777297
0.10693157 0.04656725 0.06622071 -0.012138461 0.15406737 0.08893552 0.071140446 0.048855048
0.22814457 0.14100844 -0.17518799 -0.13437517 0.13250442 0.13913606 0.021100918 0.032853484
-0.06430174 -0.08532193 0.06011071 -0.027352946 0.09590537 0.048161604 0.108595334 0.0033436494
-0.066204436 -0.036702678 -0.06665859 0.1737045 0.12388559 -0.15545397 0.16356717 -0.12080359
0.060941223 -0.15046537 -0.062397946 0.04266953 0.09283034 0.019722825 -0.047606803 -0.15654586
-0.1705811 -0.15454033 -0.16149138 -0.003940109 -0.06334629 -0.17396262 0.23562235 0.09873064
-0.094473526 -0.13632789 -0.16696218 0.15595105 0.12562184 -0.060864262 0.17613226 0.024111662
0.10893144 -0.027524672 0.029526586 -0.0041242517 -0.16458096 -0.13910902 -0.033730052 0.20030643
-0.0851293 0.10990802 -0.028033955 -0.16540834 0.04603925 -0.11466813 -0.12588435 0.0036966582
0.120705396 0.037683308 -0.1948924 0.011839538 0.017643386 -0.18020517 0.0048248316 0.027893543
-0.061734088 0.13615593 -0.17566387 0.12361797 -0.08986997 0.056695014 0.18618715 -0.13160233
-0.02383225 0.09450221 -0.055230577 -0.09724176 0.019696072 -0.14611503 0.108407475 0.08731134
0.15745872 -0.113936625 -0.05128618 -0.065137744 0.04333295 0.16093226 -0.11837937 0.18858562
0.0023710916 0.0026667574 -0.19902194 -0.15632243 0.15244164 0.024415432 -0.14605084 -0.04685703
-0.06150336 -0.09840602 0.08053735 0.0455505 -0.04582373 0.13223615 -0.14830697 -0.094238214
0.08325644 0.12454615 0.026267454 0.1209253 0.004847642 -0.079666495 -0.04665864 -0.052578885
00000000: be93 fabd 8b67 fdbd 2b61 7bbc e106 a5bd
00000010: 6ec7 7abd 403e f23d 39d6 26bd 51da 423e
00000020: d72b bb3d 336b 733d aecd 0b3e 2e60 e7bd
00000030: 546c 943d bf55 9abd fc52 71be c950 42bd
00000040: d1ca cabd d682 10be 13c5 373e 7fa2 0d3e
00000050: 0dfe e03d e91c 2f3e b216 13be df03 12bc
00000060: 491e 02be 860b 08be c267 84bd 6dac c73d
00000070: 94c6 88bd 7694 c33c 918f 9f3d b238 c9bd
00000080: 69c3 453d 8cab 3cbd 7a80 0abd 18f8 1e3e
00000090: 571d 5d3e 4336 f4bd 7064 b43b 720e a03e
000000a0: 1f2b 07be 0e5e ca3d 8965 093e 708d edbd
000000b0: b050 72bd d087 3b3d a909 86be 3f00 85be
000000c0: 181f 303d 4306 d93d c4d0 65bc dbb2 18be
000000d0: 971b a3bd 8058 f2bd 450f be3c 724e 5a3e
000000e0: 958e 263d 56cd d73d d543 1dbb 3ac8 08be
000000f0: 8f93 8c3e f838 3dbc 2b63 1e3e d570 00be
00000100: 500e c73c 8c30 0ebe d042 69bc f702 9bbd
00000110: 34ee 483e 57d0 10be 5e3f 2a3d f661 ae3e
00000120: 201e 373e ef52 5e3d 51df c1bd 855f cebd
00000130: f2f8 39bd abba cebd 4e8f 17bd 9aa4 6abd
00000140: 85a0 0d3e 73cf a23d 61fd 973d 9b19 3a3d
00000150: f822 9a3c 6cda 04bd 2136 24be f351 10be
00000160: 1161 dc3d d9fd 6cbc 412e d83d 04d8 7aba
00000170: 056b 8c3e 2c72 193e eb02 723e 4a59 febd
00000180: 0ff0 cf3d c1ac ca3d 4426 c53d 641d d0bd
00000190: b185 ad3d 7f27 3dbe 18a5 0fbe eec4 7b3e
000001a0: e18d 163e 4ddc 603d 94df ab3d 9331 96be
000001b0: 692d fabd a334 1e3c 44b2 77bd afb1 47be
000001c0: 1406 63bc b608 da3b a219 18be 0573 32be
000001d0: 1a4a 44be 5ca7 f93c aaa3 73be 52b6 323e
000001e0: 109a acbd 2a50 14be d28d cebd 44cf 033e
000001f0: 348d 4d3d ce43 0d3e e996 a7bd 8a19 89be
00000200: f0fe da3d 4dbd 3e3d b99e 873d 65e0 46bc
00000210: d6c3 1d3e d323 b63d 15b2 913d 3b1c 483d
00000220: bb9e 693e 8464 103e 7b64 33be a599 09be
00000230: 3daf 073e af79 0e3e d5db ac3c 6091 063d
00000240: a1b0 83bd 44bd aebd a636 763d 4913 e0bc
00000250: 096a c43d 1a45 453d 3b67 de3d 2121 5b3b
00000260: 3196 87bd 8c55 16bd 4d84 88bd 98df 313e
00000270: bab7 fd3d 532f 1fbe 277e 273e df67 f7bd
00000280: 819d 793d 9813 1abe fd94 7fbd 3fc6 2e3d
00000290: d51d be3d c391 a13c 5aff 42bd 8f4d 20be
000002a0: d0ac 2ebe d23f 1ebe ff5d 25be 081c 81bb
000002b0: b3bb 81bd 4223 32be fc46 713e 4a33 ca3d
000002c0: 567b c1bd 8a99 0bbe 22f8 2abe a2b1 1f3e
000002d0: 03a3 003e ce4c 79bd 045c 343e d285 c53c
000002e0: 7217 df3d 6c7b e1bc bde1 f13c bb24 87bb
000002f0: e987 28be 9872 0ebe 8628 0abd 211d 4d3e
00000300: 4558 aebd 7517 e13d 77a7 e5bc ce60 29be
00000310: a793 3c3d 20d7 eabd d4e7 00be a243 723b
00000320: 6434 f73d d059 1a3d e091 47be 9ffa 413c
00000330: dd88 903c b487 38be 9f19 9e3b 0081 e43c
00000340: e2dc 7cbd 766c 0b3e 3be1 33be 6b2b fd3d
00000350: bf0d b8bd 0839 683d d8a7 3e3e c3c2 06be
00000360: da3b c3bc 608a c13d 7539 62bd b026 c7bd
00000370: a859 a13c 2e9f 15be bd04 de3d 4ad0 b23d
00000380: dc3c 213e 9b57 e9bd 7511 52bd f066 85bd
00000390: e47d 313d 6dcb 243e e270 f2bd 971c 413e
000003a0: 5164 1b3b c4c4 2e3b 68cc 4bbe fd12 20be
000003b0: a919 1c3e df02 c83c 5a8e 15be 28ed 3fbd
000003c0: f2ea 7bbd 1889 c9bd c4f0 a43d 2993 3a3d
000003d0: aab1 3bbd ea68 073e c8dd 17be f7ff c0bd
000003e0: 5a82 aa3d 0d12 ff3d d82e d73c afa7 f73d
000003f0: f8d8 9e3b 3028 a3bd 211d 3fbd f55c 57bd

bias f4 [8]
0.088540375 -0.15049848 -0.107994534 -0.13727207 0.11968705 0.007506607 0.01710273 0.012322154
00000000: a854 b53d 461c 1abe 3d2c ddbd 0d91 0cbe
00000010: 7c1e f53d fcf9 f53b 061b 8c3c dce2 493c

weight f4 [128, 35]
-0.1589704 -0.12862165 0.020520777 -0.014195178 0.07211336 0.18564022 0.08418219 0.12974957
-0.03858913 0.029483102 0.009654519 -0.20967306 0.0154846115 -0.080401555 0.13000038 0.14136226
-0.03778403 -0.24080251 -0.037633266 0.052323252 0.09730892 -0.04561741 -0.12540595 -0.03336724
-0.12616028 -0.074689135 -0.11223629 -0.14747177 -0.07138257 -0.0116476705 -0.004086562 0.0048388494
-0.04756124 -0.23706865 0.034439504 0.0041918154 -0.14714663 -0.13725449 0.13390319 -0.0023786076
-0.2477416 -0.09881447 -0.13429038 -0.14379297 0.030304467 -0.1229223 0.04950585 0.14292759
0.112577125 0.13339455 0.13097395 0.10432238 0.016411617 0.07364246 -0.026435858 -0.035693217
0.029819312 -0.19575562 -0.082679704 0.12851171 0.094768785 0.087843165 -0.024951529 -0.13083842
0.04844905 0.1651968 0.054605104 -0.073840775 -0.027845647 -0.19735932 0.12652414 -0.0647075
0.13215458 0.050934713 0.08894943 -0.031951547 0.019678053 0.025547525 0.067627594 0.06636346
0.012689143 0.18915553 -0.12811857 0.029870914 -0.0783242 0.012834381 -0.008864939 0.33683357
-0.009602265 -0.08544971 0.060648978 0.009074743 0.054329574 0.09248278 -0.124534525 0.09713437
0.12622157 0.027529884 0.07080447 -0.057925228 0.23963551 -0.08496542 -0.13322246 -0.0020624143
0.013354679 0.26744074 -0.056864757 0.12507322 -0.1213822 -0.14361268 0.03728035 -0.015622453
0.023820356 -0.018489236 0.09444204 -0.03746282 0.030418618 0.03122045 0.06315651 0.090661936
-0.10609626 -0.08790415 -0.014354155 0.029385485 -0.1068038 -0.023353478 -0.09942289 -0.011209243
-0.11688165 0.074625514 0.075526744 0.13489877 0.038634274 0.09180356 -0.12545668 -0.03683364
-0.0882569 0.052392326 -0.06375692 -0.13706094 -0.04376258 0.08533683 0.020640647 0.06998455
-0.079671346 0.015039039 0.16563024 0.14213906 -0.096257165 -0.029067006 -0.036073398 0.063240215
0.060288783 -0.12380405 -0.016026836 0.006906693 0.052881394 -0.085259035 -0.04883199 -0.075177975
0.074066855 0.12645993 -0.00014803444 0.0233627 0.10982335 -0.09839493 0.15057848 0.021164257
0.012453886 -0.076397166 0.04593319 -0.12688696 -0.12851483 0.10479593 0.29658708 0.22072323
0.09417871 0.09955181 -0.08026976 -0.07469633 0.046225585 -0.089840345 0.011722724 -0.11484508
0.038292892 -0.09906485 -0.09723879 0.1887777 -0.04117919 -0.1491451 0.12454671 -0.201948
-0.07410659 0.055709377 -0.07113531 0.01298563 0.047087207 -0.041606702 -0.09430445 -0.086267896
-0.05354292 0.065942004 -0.07812337 -0.05718104 0.08956735 -0.14502895 0.009934977 0.057724994
0.017537294 0.0014728683 -0.1992061 0.11800392 -0.0015230484 0.12357269 0.17203955 0.11755938
0.04101753 -0.0027605952 -0.12537444 -0.13501552 0.034823567 0.0048879627 0.08999889 -0.05998891
0.037164338 -0.12520349 -0.04848832 -0.15528204 0.11537939 -0.08159702 0.057471123 0.008056675
0.0781905 0.026202736 0.058581263 0.068380095 -0.016274145 -0.05351989 -0.11237405 -0.21903808
0.17223035 0.1514927 -0.07368065 0.0555342 -0.32523257 -0.22895229 0.031501487 -0.11224801
0.001383051 0.048397027 -0.085716374 -0.097821444 -0.07206593 -0.060593117 -0.05573622 0.14973323
00000000: 23c9 22be 65b5 03be 301b a83c e492 68bc
00000010: 2bb0 933d 7818 3e3e b667 ac3d 12dd 043e
00000020: a30f 1ebd 8c86 f13c fd2d 1e3c 89b4 56be
00000030: 2bb3 7d3c 92a9 a4bd d21e 053e 45c1 103e
00000040: 6dc3 1abd ef94 76be 5725 1abd e850 563d
00000050: e649 c73d 52d9 3abd 6b6a 00be 16ac 08bd
00000060: 2930 01be 9ef6 98bd 24dc e5bd d702 17be
00000070: 0631 92bd dfd5 3ebc 91e8 85bb 368f 9e3b
00000080: 93cf 42bd 20c2 72be 7010 0d3d 7f5b 893b
00000090: 9bad 16be 718c 0cbe eb1d 093e 6ae2 1bbb
000000a0: f9af 7dbe 3e5f cabd 6b83 09be 773e 13be
000000b0: 1341 f83c b0be fbbd a5c6 4a3d 9c5b 123e
000000c0: d68e e63d 9598 083e 091e 063e f9a6 d53d
000000d0: a871 863c dcd1 963d 0390 d8bc 0d33 12bd
000000e0: a147 f43c 2974 48be fa53 a9bd 9398 033e
000000f0: 2316 c23d 1ee7 b33d 2667 ccbc 82fa 05be
00000100: 8372 463d 5a29 293e 9aa9 5f3d d539 97bd
00000110: 8e1c e4bc 9018 4abe 8b8f 013e 5e85 84bd
00000120: 8853 073e eba0 503d 1e2b b63d a0df 02bd
00000130: de33 a13c 0b49 d13c 5680 8a3d 91e9 873d
00000140: 20e6 4f3c fdb1 413e 8431 03be d9b3 f43c
00000150: 7068 a0bd 4c47 523c 403e 11bc 7375 ac3e
00000160: d252 1dbc 4200 afbd 106b 783d 3bae 143c
00000170: b088 5e3d 9d67 bd3d f50b ffbd 62ee c63d
00000180: 3a40 013e 5a86 e13c ef01 913d 0143 6dbd
00000190: 0363 753e 5a02 aebd 786b 08be 9229 07bb
000001a0: 95cd 5a3c feed 883e 05eb 68bd 3213 003e
000001b0: 3b97 f8bd 340f 13be 48b3 183d 51f5 7fbc
000001c0: e822 c33c bd76 97bc d46a c13d 9d72 19bd
000001d0: 7730 f93c 07c2 ff3c 3358 813d f7ac b93d
000001e0: ff48 d9bd 1707 b4bd b12d 6bbc d4b9 f03c
000001f0: f3bb dabd cb4f bfbc 3a9e cbbd f9a6 37bc
00000200: a65f efbd 43d5 983d c4ad 9a3d e722 0a3e
00000210: f93e 1e3d 8103 bc3d b777 00be dfde 16bd
00000220: 09c0 b4bd 5699 563d fd92 82bd b459 0cbe
00000230: 6440 33bd 13c5 ae3d 9316 a93c 0f54 8f3d
00000240: bb2a a3bd 4d66 763c f99a 293e e78c 113e
00000250: 7a22 c5bd ee1d eebc b3c1 13bd 1684 813d
00000260: 5ff1 763d fa8c fdbd b64a 83bc 8a51 e23b
00000270: 299a 583d 4a9c aebd 0e04 48bd e9f6 99bd
00000280: 5db0 973d b67e 013e b139 1bb9 2263 bf3c
00000290: 11eb e03d 4883 c9bd 3f31 1a3e aa60 ad3c
000002a0: 620b 4c3c 1e76 9cbd 7124 3c3d a8ee 01be
000002b0: 6499 03be 409f d63d 43da 973e 4505 623e
000002c0: c4e0 c03d d2e1 cb3d 7964 a4bd 64fa 98bd
000002d0: 0a57 3d3d 37fe b7bd ab10 403c e633 ebbd
000002e0: 02d9 1c3d 83e2 cabd 2125 c7bd f14e 413e
000002f0: 83ab 28bd 7eb9 18be 5812 ff3d 75cb 4ebe
00000300: 32c5 97bd 842f 643d 64af 91bd aec1 543c
00000310: 84de 403d ca6b 2abd b122 c1bd 39ad b0bd
00000320: d24f 5bbd 9a0c 873d 25ff 9fbd ab36 6abd
00000330: 166f b73d 7882 14be 50c6 223c 0b71 6c3d
00000340: 5faa 8f3c 420d c13a affc 4bbe 0aac f13d
00000350: 06a1 c7ba ae13 fd3d 232b 303e f9c2 f03d
00000360: ff01 283d 1aeb 34bb 2862 00be 8241 0abe
00000370: 28a3 0e3d 342b a03b 5751 b83d eeb6 75bd
00000380: a239 183d 5835 00be b09b 46bd 4102 1fbe
00000390: 084c ec3d 571c a7bd d766 6b3d 2500 043c
000003a0: 5722 a03d 1fa7 d63c e8f2 6f3d dd0a 8c3d
000003b0: 5b51 85bc ac37 5bbd 5e24 e6bd 854b 60be
000003c0: 275d 303e e720 1b3e e1e5 96bd d477 633d
000003d0: e284 a6be 7872 6abe b407 013d 49e2 e5bd
000003e0: 7e47 b53a f63b 463d 118c afbd 9c56 c8bd
000003f0: 4d97 93bd 7d30 78bd aa4b 64bd ab53 193e

bias f4 [128]
0.14563544 0.17067705 -0.05703827 0.15532483 0.03925757 -0.005651549 0.08187356 0.021496896
-0.13603435 -0.02416069 -0.067848556 0.009112155 -0.07745722 0.011703739 0.013655006 0.16759995
0.11394688 0.13633062 0.15010253 0.032560393 0.03906254 0.071967356 0.138385 0.16037095
0.13086379 -0.19173783 0.018470258 0.099287495 -0.017359763 0.10556831 -0.14399688 0.10063532
0.10881233 -0.083585344 0.0392278 -0.08013917 0.013223459 0.08631961 -0.17867753 0.052383017
0.19458027 0.054661162 0.06874176 0.05825821 -0.19166979 -0.116528675 -0.09133494 -0.006383825
-6.004439e-05 0.13373843 -0.15686814 0.17135681 0.11709173 0.042675167 -0.22842184 0.050673086
-0.13078876 0.028344376 -0.12310056 -0.013826282 -0.06645303 -0.10267442 -0.052384928 -0.027289663
0.13175483 -0.14903177 -0.08514281 -0.01545475 -0.11352636 0.18769783 -0.053355973 0.07227666
0.031846203 0.060525745 -0.03304876 -0.000750151 0.021208534 -0.04009539 0.040137187 -0.07828426
-0.14778388 -0.07993661 -0.16233686 0.11336496 -0.036650084 0.059143063 -0.0083102295 0.11056743
0.08247763 0.17009357 -0.11008297 -0.0011460923 0.080680646 0.03240531 -0.15787515 0.091441125
0.1254238 -0.007481708 0.16068093 -0.14087331 0.1268987 0.088414334 0.060351986 0.15016386
0.1348839 -0.0060961577 -0.08397997 0.106879935 0.13351314 0.01162455 0.151784 0.08979572
0.15063417 0.058397915 0.15099086 -0.107296474 0.06559904 -0.14497463 -0.18153022 0.19835937
-0.14379872 -0.062250774 -0.014552092 0.15213805 0.10173185 0.18286726 -0.12662846 0.015934508
00000000: 7521 153e f7c5 2e3e f6a0 69bd 790d 1f3e
00000010: 8ccc 203d a130 b9bb 53ad a73d 421a b03c
00000020: 974c 0bbe a4ec c5bc 2ff4 8abd 264b 153c
00000030: e4a1 9ebd 0ac1 3f3c 3fb9 5f3c 529f 2b3e
00000040: fb5c e93d 419a 0b3e 7ab4 193e 0c5e 053d
00000050: 0b00 203d 9f63 933d ccb4 0d3e 4838 243e
00000060: 2801 063e ec56 44be f04e 973c 3e57 cb3d
00000070: 1036 8ebc 3334 d83d eb73 13be e419 ce3d
00000080: 00d9 de3d cb2e abbd 54ad 203d 0120 a4bd
00000090: 35a7 583c 56c8 b03d 3ef7 36be 938f 563d
000000a0: 0d40 473e 62e4 5f3d 7bc8 8c3d 29a0 6e3d
000000b0: 1645 44be 96a6 eebd d00d bbbd 682f d1bb
000000c0: 2cd8 7bb8 baf2 083e 0ba2 20be 2978 2f3e
000000d0: cacd ef3d 28cc 2e3d 6ae7 69be 958e 4f3d
000000e0: 7ded 05be 7732 e83c 251c fcbd a187 62bc
000000f0: 8718 88bd f746 d2bd 9491 56bd 928e dfbc
00000100: bdea 063e c99b 18be 5b5f aebd eb35 7dbc
00000110: 8280 e8bd dc33 403e cb8b 5abd c905 943d
00000120: 2a71 023d d8e9 773d 235e 07bd c8a5 44ba
00000130: 85bd ad3c 103b 24bd e466 243d 8053 a0bd
00000140: a854 17be ceb5 a3bd a23b 26be e32b e83d
00000150: 661e 16bd ff3f 723d a127 08bc 2d71 e23d
00000160: 08ea a83d 022d 2e3e 2e73 e1bd 7a38 96ba
00000170: e53b a53d 6ebb 043d 06aa 21be 7c45 bb3d
00000180: 196f 003e 1e29 f5bb 8b89 243e 1841 10be
00000190: bcf1 013e 9312 b53d a533 773d 8ec4 193e
000001a0: 011f 0a3e 47c2 c7bb b1fd abbd dee3 da3d
000001b0: abb7 083e e674 3e3c 446d 1b3e d2e6 b73d
000001c0: d83f 1a3e a732 6f3d 599d 1a3e 41be dbbd
000001d0: ca58 863d 3b74 14be 0fe3 39be b81e 4b3e
000001e0: f93f 13be abfa 7ebd e66b 6ebc 14ca 1b3e
000001f0: ca58 d03d 8e41 3b3e e4aa 01be 1689 823c

weight f4 [17, 128]
-0.054362155 0.035346493 0.061328176 0.0753636 -0.03740428 -0.07812256 -0.13752069 0.061510257
-0.2367672 -0.019278716 0.0726978 -0.04303109 0.030795634 -0.042721733 -0.06580098 0.004596264
0.021612352 0.0039914013 0.025082806 0.004188067 -0.0064394632 -0.056292247 -0.10761719 0.06613734
-0.116845585 -0.071594246 -0.044561554 -0.054153167 0.037643857 -0.098546706 0.06139259 0.21062727
-0.11517172 0.022646144 0.1755258 -0.018794216 -0.14350568 0.08630053 -0.06419347 0.11861544
-0.05542251 -0.016297523 0.025178356 0.038357437 0.008538418 0.07014985 -0.043596003 -0.110260464
-0.047679793 0.18763463 -0.11414901 -0.033793036 0.077804685 0.057744812 -0.22839406 0.0470979
-0.35882026 0.017816767 -0.23486152 0.012564368 0.24386926 -0.15604265 0.056120295 -0.11018647
-0.021182526 0.024484323 -0.024623713 -0.11762542 0.012563928 -0.07824842 0.037627008 -0.24927443
0.11666005 0.048484396 -0.08599539 0.050708007 -0.093295254 -0.101238325 -0.044903364 0.05933002
-0.032952894 0.09518968 0.028329203 0.035975568 -0.012444626 0.17589083 0.02635859 0.010884128
-0.12926136 -0.24926995 -0.08763322 0.074189864 0.06942993 -0.048916332 0.09841548 0.10146528
-0.40650994 0.18599673 -0.29013574 -0.045209277 -0.0072280928 0.31515267 -0.02787481 0.019826151
-0.044817325 -0.053122036 -0.0452427 -0.1022685 0.13242914 0.24706797 0.07189643 -0.05657669
0.0019519628 0.07056356 0.08003459 -0.053101223 -0.028282426 0.027461609 0.18578625 0.034851458
0.11474887 -0.10656903 -0.08547131 -0.019556854 0.0035360742 -0.042969342 -0.039492935 0.12372404
0.047792345 0.045310613 0.07865039 -0.09402535 0.061806217 -0.0961791 0.03699061 -0.06582755
0.0508011 -0.04928468 0.007075869 0.01711207 -0.057010468 0.05925748 -0.027023885 0.062080637
0.008382984 0.02304675 -0.08381792 -0.0794869 0.059407216 0.04516267 0.04994903 -0.02082787
-0.03323153 0.08609874 0.023700606 0.022187416 0.18299294 -0.010269699 0.017704375 -0.05247598
0.00049887423 -0.07012963 -0.007257701 0.06559707 -0.057940274 -0.1033673 0.10754982 -0.01668401
-0.074850984 -0.018531669 0.09072281 0.02089906 0.2154471 -0.12535556 -0.07599988 0.09456894
0.025167944 -0.062237818 -0.013041658 0.044194326 -0.026155677 -0.13040848 0.18075794 -0.04739251
0.24198878 -0.011545508 0.2504794 0.18628061 -0.16788274 0.031450298 0.039502062 0.072913826
0.04570684 0.055327825 0.06538761 -0.052533764 0.10463754 0.066472836 0.038630653 0.10158445
-0.065692484 -0.01888706 0.0003989634 -0.061426096 0.0965119 -0.03914582 -0.106542505 0.012440259
-0.04045192 -0.033027627 0.008355135 -0.08679269 -0.04023227 -0.09339808 0.012557017 -0.007939097
0.075454 -0.013494992 0.056668803 -0.038060833 0.09537493 -0.06803335 0.03401002 0.012433389
0.4888756 -0.16738085 0.19031379 -0.059529155 -0.031558987 -0.22010194 -0.017665017 0.20510581
0.022717353 -0.020152587 -0.057686754 0.040441822 0.038010694 -0.040941924 -0.08415555 0.010995549
-0.01529889 -0.04875538 0.054972224 0.032726843 0.063954264 -0.023713926 -0.16806287 0.004354476
-0.059212536 0.038212184 -0.0998641 -0.04233642 0.07510258 0.016213514 -0.008329225 0.012616025
00000000: daaa 5ebd 7cc7 103d 4133 7b3d 3b58 9a3d
00000010: 3b35 19bd b9fe 9fbd 39d2 0cbe 2ef2 7b3d
00000020: 1a73 72be 66ee 9dbc 96e2 943d 5e41 30bd
00000030: 2047 fc3c fcfc 2ebd aac2 86bd 429c 963b
00000040: 630c b13c 4dca 823b 757a cd3c 0d3c 893b
00000050: 2202 d3bb b392 66bd 6766 dcbd 0473 873d
00000060: bd4c efbd 01a0 92bd 2d86 36bd b6cf 5dbd
00000070: 7230 1a3d dbd2 c9bd cc76 7b3d adae 573e
00000080: 27df ebbd 6884 b93c 09bd 333e 54f6 99bc
00000090: 27f3 12be 55be b03d de77 83bd a7ec f23d
000000a0: b702 63bd 6282 85bc d742 ce3c b01c 1d3d
000000b0: b9e4 0b3c b9aa 8f3d b991 32bd 3dd0 e1bd
000000c0: e34b 43bd 4b23 403e f5c6 e9bd 916a 0abd
000000d0: 1058 9f3d d385 6c3d 22e0 69be bae9 403d
000000e0: 4ab7 b7be 78f4 913c 8a7f 70be c7da 4d3c
000000f0: ddb8 793e a5c9 1fbe 65de 653d 72a9 e1bd
00000100: fa86 adbc 5993 c83c abb7 c9bc 99e5 f0bd
00000110: efd8 4d3c b540 a0bd c71e 1a3d cc41 7fbe
00000120: 77eb ee3d 9397 463d 5a1e b0bd 33b3 4f3d
00000130: 9511 bfbd 0a56 cfbd 97ec 37bd 0904 733d
00000140: 9df9 06bd cff2 c23d a512 e83c 1e5b 133d
00000150: 8be4 4bbc ba1c 343e f8ed d73c 5753 323c
00000160: 175d 04be 9f40 7fbe 0c79 b3bd dbf0 973d
00000170: 4731 8e3d 7e5c 48bd 0e8e c93d 07cd cf3d
00000180: 1222 d0be ed75 3e3e ac8c 94be 5d2d 39bd
00000190: a3d9 ecbb b15b a13e b759 e4bc 746a a23c
000001a0: 5f92 37bd 7e96 59bd 6950 39bd 2672 d1bd
000001b0: 819b 073e 63ff 7c3e 6f3e 933d f6bc 67bd
000001c0: 01d9 ff3a a183 903d 2de9 a33d ab80 59bd
000001d0: 8cb0 e7bc 2bf7 e03c c03e 3e3e 67c0 0e3d
000001e0: 7501 eb3d dd40 dabd 950b afbd b235 a0bc
000001f0: 7bbd 673b 9f00 30bd 58c3 21bd 0863 fd3d
00000200: e8c1 433d 9f97 393d 7513 a13d 5d90 c0bd
00000210: 8428 7d3d 8cf9 c4bd 7783 173d 98d0 86bd
00000220: d014 503d bcde 49bd b1dc e73b 9d2e 8c3c
00000230: cf83 69bd f9b7 723d 3261 ddbc 4448 7e3d
00000240: c958 093c 8acc bc3c bba8 abbd 07ca a2bd
00000250: fb54 733d 7efc 383d 5b97 4c3d 369f aabc
00000260: c91d 08bd 8954 b03d c627 c23c 62c2 b53c
00000270: 8062 3b3e 3d42 28bc c408 913c 0ef1 56bd
00000280: e2c6 023a 20a0 8fbd 02d2 edbb c257 863d
00000290: c852 6dbd 3cb2 d3bd 1443 dc3d e8ac 88bc
000002a0: 794b 99bd bacf 97bc e1cc b93d 8134 ab3c
000002b0: 2a9e 5c3e 355d 00be d3a5 9bbd 5cad c13d
000002c0: 012d ce3c 15ed 7ebd aeac 55bc 1c05 353d
000002d0: 6e44 d6bc cd89 05be 9c18 393e a61e 42bd
000002e0: e8cb 773e 5f29 3dbc d63e 803e 58c0 3e3e
000002f0: 74e9 2bbe 07d2 003d eacc 213d d853 953d
00000300: 1837 3b3d 6e9f 623d f0e9 853d a52d 57bd
00000310: 354c d63d e922 883d 2d3b 1e3d 820b d03d
00000320: c889 86bd 09b9 9abc f62b d139 ee99 7bbd
00000330: 08a8 c53d 5e57 20bd f532 dabd 3ad2 4b3c
00000340: eab0 25bd fa47 07bd fae3 083c 5ec0 b1bd
00000350: 98ca 24bd 7e47 bfbd f2bb 4d3c fc12 02bc
00000360: a087 9a3d 191a 5dbc 8c1d 683d ade5 1bbd
00000370: ee53 c33d 1255 8bbd 174e 0b3d 6ab5 4b3c
00000380: e74d fa3e e365 2bbe 9ee1 423e d8d4 73bd
00000390: ff43 01bd 6762 61be 3ab6 90bc 4207 523e
000003a0: be19 ba3c 0a17 a5bc f248 6cbd 53a6 253d
000003b0: 1ab1 1b3d b8b2 27bd bf59 acbd ad26 343c
000003c0: 32a8 7abc b9b3 47bd 8e2a 613d 950c 063d
000003d0: 74fa 823d b543 c2bc ac18 2cbe feaf 8e3b
000003e0: d888 72bd 6184 1c3d 8d85 ccbd f468 2dbd
000003f0: 62cf 993d 34d2 843c 4d77 08bc 72b3 4e3c

bias f4 [17]
0.06768192 -0.08361906 -0.14107329 0.06810132 -0.080226675 0.015037579 0.002485026 0.12567832
0.027116276 0.032362036 -0.0013986841 0.04786824 0.005632494 0.085619114 0.062704846 -0.05500527
0.12228109
00000000: d29c 8a3d 7840 abbd 8475 10be b478 8b3d
00000010: e24d a4bd 2e60 763c d1db 223b d1b1 003e
00000020: f422 de3c 0e8e 043d 0d54 b7ba 7d11 443d
00000030: c990 b83b 1359 af3d 666b 803d 354d 61bd
00000040: 826e fa3d

weight f4 [128, 1]
0.6173023 0.99994475 -0.33755624 0.80777216 0.4169677 1.0374154 -0.70148575 -0.23455727
0.40178186 -0.3924899 0.8389084 0.33326596 -0.92546606 0.72370994 -0.22363019 0.11830199
-0.7443955 -0.86869514 0.059563994 -0.30429378 0.12528336 0.22964978 -0.63587904 -0.12164199
0.948423 -0.16723214 -0.45357206 -0.20651162 -0.9599949 0.2713987 0.95685333 -0.7498584
0.19767003 0.9004197 1.0237395 -0.93465567 0.061070736 -0.960372 0.9696284 -0.9161382
-0.5672841 -0.84875906 -0.26549327 0.24441555 0.6729864 -0.73771155 -0.94497526 0.89183027
0.42679954 -0.2932087 -0.7650999 0.751157 -0.8218105 0.6011976 -0.077346206 0.11455029
-0.6597513 0.16141808 0.644693 0.7143974 0.6430724 -0.56789994 -0.76018393 0.38766238
0.3976462 -0.2871832 0.50540733 0.7017172 0.77546704 0.80065626 0.046373792 -0.3464024
-0.10342395 -0.4170301 0.43448964 -0.6669489 -0.4425117 0.63195974 -0.88443553 0.9279484
-0.7969984 0.06626643 -0.14806986 0.49739566 -0.84225345 0.8390228 -0.17106152 -0.9008901
-0.1968498 0.55670977 -0.270442 0.63693964 -0.7714679 0.6265278 0.22277446 -0.37431297
0.092972994 0.4395951 0.95278454 -0.6389963 0.0932374 -0.44531178 1.0188687 1.12339
-0.777755 0.6506008 0.11667183 -0.8684386 0.843435 -0.9964303 -0.7849679 1.0417025
0.83991367 -0.6005296 0.24505568 -0.4241053 -0.5141215 -0.36107767 -0.047017574 -0.9744345
0.6800172 -0.26257634 -0.19342804 -0.9060708 -0.5631248 -0.52429104 0.22814679 0.64752525
00000000: 8607 1e3f 61fc 7f3f 2cd4 acbe 28ca 4e3f
00000010: ca7c d53e 07ca 843f 9294 33bf c82f 70be
00000020: 5ab6 cd3e 70f4 c8be b3c2 563f d6a1 aa3e
00000030: 58eb 6cbf 0e45 393f 50ff 64be 5048 f23d
00000040: b490 3ebf ce62 5ebf 60f9 733d 65cc 9bbe
00000050: 484a 003e 5029 6b3e f8c8 22bf 701f f9bd
00000060: dacb 723f e73e 2bbe 993a e8be c877 53be
00000070: 3ac2 75bf c5f4 8a3e 57f4 743f b8f6 3fbf
00000080: 036a 4a3e e881 663f e509 833f 9845 6fbf
00000090: 4f25 7a3d f0da 75bf 9139 783f 0888 6abf
000000a0: 8839 11bf 4648 59bf bcee 87be 1248 7a3e
000000b0: d648 2c3f aada 3cbf e6e9 71bf fd4e 643f
000000c0: 7885 da3e 731f 96be 96dd 43bf d34b 403f
000000d0: 2c62 52bf 16e8 193f b067 9ebd 5899 ea3d
000000e0: 76e5 28bf c84a 253e 9a0a 253f bfe2 363f
000000f0: 65a0 243f e461 11bf 6a9b 42bf af7b c63e
00000100: 4898 cb3e ad09 93be 6062 013f bda3 333f
00000110: 0285 463f cff7 4c3f 72f2 3d3d a85b b1be
00000120: f0cf d3bd f884 d5be 6d75 de3e 2abd 2abf
00000130: e590 e2be 1dc8 213f 5e6a 62bf 078e 6d3f
00000140: 1608 4cbf b2b6 873d a09f 17be a5aa fe3e
00000150: ec9d 57bf 33ca 563f c02a 2fbe bca0 66bf
00000160: fe92 49be 8884 0e3f 6077 8abe 7a0e 233f
00000170: ec7e 45bf 2064 203f fd1e 643e f3a5 bfbe
00000180: a068 be3d 9c12 e13e b0e9 733f 4395 23bf
00000190: 40f3 be3d e8ff e3be 4a6a 823f 3ecb 8f3f
000001a0: f41a 47bf c68d 263f a4f1 ee3d fe51 5ebf
000001b0: 5beb 573f 0e16 7fbf a8f3 48bf 8256 853f
000001c0: 9504 573f 4fbc 19bf e0ef 7a3e 5424 d9be
000001d0: 779d 03bf 2cdf b8be 8095 40bd 8a74 79bf
000001e0: 9b15 2e3f 6870 86be 0012 46be 42f4 67bf
000001f0: f228 10bf f037 06bf 509f 693e 37c4 253f

bias f4 [128]
0.9455776 -0.05849515 -0.18758976 -0.87558246 -0.006866213 0.88699204 0.46686995 -0.96994543
0.45705843 -0.247684 -0.5279232 1.1451669 0.6443229 0.74368215 -0.8428929 -0.40498507
0.80630326 0.9372386 -0.4802941 0.30131814 -0.9834149 -0.995448 -0.678439 -0.95150054
0.8016389 0.65056413 0.6564192 -0.09568906 0.39090133 0.11103464 0.22034462 0.8107909
-0.24767704 0.72698516 0.2910104 -0.5054177 0.8192763 -0.79447186 0.9296938 -0.61041605
-0.023989677 0.8406527 -0.20218575 0.52580154 0.6378265 0.6446178 -0.8105695 -0.07372577
-0.9596493 1.0573398 -0.30670786 -0.2797821 -0.19201434 -0.6524436 0.029344082 0.72623044
0.48054993 -0.9143399 -0.69905746 0.7166024 0.49293932 -0.4258982 -0.8355168 0.63364065
0.7966425 0.84687793 -0.080476664 -0.24225776 0.39506194 0.7997196 0.97495943 -0.38895535
-0.098505855 0.4508791 0.20765841 -0.9085375 1.0601778 -0.19935165 -0.00021982193 0.28017032
0.8631952 1.0971354 0.643853 0.43493393 -0.923656 0.04828813 0.92068875 0.040740848
1.0332263 0.3545479 -0.5985335 -0.38310713 -0.018378615 0.75998855 -0.026284656 1.126043
-0.7771598 0.9785872 0.63867027 0.6891043 -0.8755497 0.31991196 0.55438596 0.46634406
-0.60399437 -0.9319691 0.38431996 -0.80220556 -1.0125445 0.9858054 -0.62837374 0.2313224
0.63797003 0.8672803 -0.9662907 -0.46416974 0.5557081 -0.7975223 -0.46093965 -0.18670928
0.4762706 -0.051446795 -0.9137814 0.12253201 -0.57903147 -0.407524 -0.7610544 0.9830093
00000000: 6011 723f 9c98 6fbd 8817 40be 2c26 60bf
00000010: f8fd e0bb e911 633f 9409 ef3e 584e 78bf
00000020: 9003 ea3e e0a0 7dbe fa25 07bf d494 923f
00000030: 58f2 243f f461 3e3f d4c7 57bf 345a cfbe
00000040: e469 4e3f deee 6f3f 1ce9 f5be 5f46 9a3e
00000050: 14c1 7bbf aed5 7ebf 2eae 2dbf 8a95 73bf
00000060: 3538 4d3f 5f8b 263f 170b 283f a0f8 c3bd
00000070: 3824 c83e 2166 e33d 05a2 613e fe8f 4f3f
00000080: 0d9f 7dbe b31b 3a3f 51ff 943e 0e63 01bf
00000090: 17bc 513f 8262 4bbf 6a00 6e3f 3a44 1cbf
000000a0: 0086 c4bc 0435 573f c809 4fbe ee9a 063f
000000b0: 9948 233f ac05 253f 7c81 4fbf 89fd 96bd
000000c0: 94ab 75bf e956 873f d008 9dbe 993f 8fbe
000000d0: 689f 44be 8b06 27bf 0063 f03c 3dea 393f
000000e0: a40a f63e 2e12 6abf 6ef5 32bf 4173 373f
000000f0: 8b62 fc3e 540f dabe 6ee4 55bf 4636 223f
00000100: c3f0 4b3f fecc 583f f3d0 a4bd 6b12 78be
00000110: 8f45 ca3e 6cba 4c3f f196 793f 2825 c7be
00000120: 70bd c9bd a0d9 e63e 68a4 543e ea95 68bf
00000130: e8b3 873f d722 4cbe 0080 66b9 7c72 8f3e
00000140: 5cfa 5c3f ef6e 8c3f 8dd3 243f a9af de3e
00000150: b874 6cbf c6c9 453d 42b2 6b3f e0df 263d
00000160: c240 843f 4d87 b53e 7e39 19bf 9e26 c4be
00000170: c08e 96bc 9c8e 423f eb52 d7bc 2d22 903f
00000180: f2f3 46bf b184 7a3f e57f 233f 2469 303f
00000190: 0624 60bf 80cb a33e 3dec 0d3f a6c4 ee3e
000001a0: 609f 1abf 8795 6ebf 96c5 c43e 585d 4dbf
000001b0: 0f9b 81bf be5d 7c3f 1add 20bf c7df 6c3e
000001c0: 0152 233f 1506 5e3f d45e 77bf a8a7 edbe
000001d0: e342 0e3f 6c2a 4cbf 4800 ecbe b830 3fbe
000001e0: bdd9 f33e e0b9 52bd 94ed 69bf 10f2 fa3d
000001f0: 683b 14bf fca6 d0be 76d4 42bf 7fa6 7b3f

weight f4 [1, 128]
-0.15685137 -0.12424411 -0.037360165 -0.0906286 -0.10255112 -0.17578535 0.024267502 -0.027300853
-0.17262682 0.066059545 -0.06411201 -0.17968267 -0.05721091 -0.14239675 -0.027612139 -0.02232529
-1.7431067 -1.7125883 -0.065425836 0.034856785 0.006692171 -0.06472977 0.081043236 -0.0770468
-0.12879744 -0.2279803 0.07387749 -0.028168002 -0.058521256 -0.07681563 -0.110644035 -1.6963938
0.8840844 -0.21554723 -0.1217337 0.0015239563 -0.15687153 0.054718576 -0.23426077 0.05889733
-0.034790665 -0.019611329 0.05784378 -0.18805587 -0.1921477 0.04568182 0.048557986 -0.11146754
-0.060864694 -0.14353786 -0.07115586 -0.11079976 -0.082573526 -0.17963468 0.017377336 -0.11344359
0.05172846 -0.053006068 -0.04887683 -0.23440999 -0.079313554 0.05568708 -0.0748989 -0.20916434
-0.22446948 -0.23208335 -0.043353435 -0.14902538 -0.08516061 -0.20543541 -0.20001513 -0.006029907
0.0011929349 -1.6195956 -0.115421504 -0.059135422 -0.1936959 -0.11542493 -0.026023582 -0.21081021
-1.5829101 -0.1757038 -0.19889864 -0.20601809 0.061618153 -0.09855702 -0.23267044 0.064214736
-0.19471082 -0.1711719 0.07756074 -0.15094909 -0.06468589 -0.15827644 -0.11084319 -0.21270037
0.015123037 -0.14504181 -0.10688133 -1.6189216 -0.04123694 0.01786333 -0.18776923 -0.16118583
-0.0610568 1.0014614 -0.08716327 -0.0029474343 0.011821275 0.06545916 -0.0048479624 -0.16700368
-0.16826698 0.21379253 -0.050984893 0.010071074 -1.6018755 0.08029008 -0.016834367 0.032360815
-0.16880362 0.017099313 -0.046269305 0.084747076 0.057708856 0.08356833 -0.0844223 -0.14254728
00000000: a59d 20be b273 febd f906 19bd 7d9b b9bd
00000010: 5206 d2bd 1301 34be a4cc c63c 0aa6 dfbc
00000020: 16c5 30be 3a4a 873d 284d 83bd bcfe 37be
00000030: fd55 6abd 74d0 11be da32 e2bc 87e3 b6bc
00000040: 1f1e dfbf 1836 dbbf fbfd 85bd fdc5 0e3d
00000050: 004a db3b 0b91 84bd fff9 a53d b6ca 9dbd
00000060: 7ae3 03be ab73 69be 154d 973d 95c0 e6bc
00000070: fcb3 6fbd 8351 9dbd 5799 e2bd 6f23 d9bf
00000080: 5b53 623f 6ab8 5cbe 854f f9bd 7dbf c73a
00000090: eea2 20be 9620 603d 0ee2 6fbe 543e 713d
000000a0: a880 0ebd f0a7 a0bc 99ed 6c3d b891 40be
000000b0: 5ec2 44be dc1c 3b3d bde4 463d 1849 e4bd
000000c0: 424d 79bd 97fb 12be 2aba 91bd fcea e2bd
000000d0: 4f1c a9bd 27f2 37be ea5a 8e3c 1d55 e8bd
000000e0: 39e1 533d e41c 59bd 1233 48bd 2c09 70be
000000f0: 256f a2bd 2318 643d 9864 99bd 2d2f 56be
00000100: 54db 65be 42a7 6dbe 5f93 31bd 1c9a 18be
00000110: b068 aebd a95d 52be c4d0 4cbe 8796 c5bb
00000120: 415c 9c3a e94e cfbf 1c62 ecbd fc37 72bd
00000130: 3858 46be e863 ecbd 682f d5bc a2de 57be
00000140: cc9c cabf b2eb 33be 16ac 4bbe 68f6 52be
00000150: 5163 7c3d 43d8 c9bd 2941 6ebe 0483 833d
00000160: 4662 47be b047 2fbe 2ad8 9e3d 6692 1abe
00000170: 097a 84bd 3813 22be c101 e3bd 20ce 59be
00000180: 9dc6 773c d785 14be 99e4 dabd d338 cfbf
00000190: 11e8 28bd 1e56 923c 9446 40be e60d 25be
000001a0: b216 7abd e32f 803f a882 b2bd be29 41bb
000001b0: 05ae 413c 740f 863d a8db 9ebb 0303 2bbe
000001c0: 2e4e 2cbe 6eec 5a3e 89d5 50bd 2501 253c
000001d0: 420a cdbf 206f a43d 3ae8 89bc c68c 043d
000001e0: dbda 2cbe dc13 8c3c e284 3dbd e08f ad3d
000001f0: 1f60 6c3d df25 ab3d 99e5 acbd eaf7 11be

coord_updates f4 [20, 3]
0.0 0.0 0.0 0.0 0.0 0.0 0.0 0.0
0.0 0.0 0.0 0.0 0.0 0.0 0.0 0.0
0.0 0.0 0.0 0.0 0.0 0.0 0.0 0.0
0.0 0.0 0.0 0.0 0.0 0.0 0.0 0.0
0.0 0.0 0.0 0.0 0.0 0.0 0.0 0.0
0.0 0.0 0.0 0.0 0.0 0.0 0.0 0.0
0.0 0.0 0.0 0.0 0.0 0.0 0.0 0.0
0.0 0.0 0.0 0.0
00000000: 0000 0000 0000 0000 0000 0000 0000 0000
00000010: 0000 0000 0000 0000 0000 0000 0000 0000
00000020: 0000 0000 0000 0000 0000 0000 0000 0000
00000030: 0000 0000 0000 0000 0000 0000 0000 0000
00000040: 0000 0000 0000 0000 0000 0000 0000 0000
00000050: 0000 0000 0000 0000 0000 0000 0000 0000
00000060: 0000 0000 0000 0000 0000 0000 0000 0000
00000070: 0000 0000 0000 0000 0000 0000 0000 0000
00000080: 0000 0000 0000 0000 0000 0000 0000 0000
00000090: 0000 0000 0000 0000 0000 0000 0000 0000
000000a0: 0000 0000 0000 0000 0000 0000 0000 0000
000000b0: 0000 0000 0000 0000 0000 0000 0000 0000
000000c0: 0000 0000 0000 0000 0000 0000 0000 0000
000000d0: 0000 0000 0000 0000 0000 0000 0000 0000
000000e0: 0000 0000 0000 0000 0000 0000 0000 0000

weight f4 [128, 35]
-0.10957467 -0.019560352 -0.07644703 -0.0070800805 -0.13951418 -0.077644646 0.14984259 -0.1713035
0.05017487 0.060101725 -0.108689874 -0.0635059 -0.10444741 -0.17418312 0.11387613 0.02067253
0.11575609 0.11199592 0.009973611 -0.12312968 0.12335421 -0.041948054 -0.0050381767 -0.1794775
0.04632191 0.14147234 -0.14098087 0.089987434 -0.06993149 0.012539762 0.07000184 -0.12399084
-0.0020592483 -0.119967185 0.15566428 0.2288496 -0.011911285 -0.1665776 -0.13790832 0.06888657
0.0048665544 0.10028778 -0.078385584 0.104941 0.13048375 0.13949548 -0.15248492 -0.06318298
-0.15868537 -0.15211342 -0.06508575 0.055373933 -0.037567012 -0.17427929 -0.021036927 -0.033360094
0.0086448435 0.00720296 -0.028780969 0.06990663 -0.10823992 0.103896774 0.23747458 -0.09277445
0.14013681 -0.12605357 -0.045232207 -0.10368546 -0.0028916236 -0.026421493 -0.026080603 -0.15539867
0.047341537 0.09349425 -0.0052500507 0.059019 0.048196405 -0.066548474 0.007701519 0.13145281
0.11253638 -0.15430446 0.116119295 -0.021809256 0.08142546 0.095003515 -0.13129017 -0.050912887
0.030397926 0.13582599 0.042484235 0.08542143 -0.044554062 0.06886596 0.09708893 0.038072042
-0.10886011 -0.07868477 0.06026488 -0.09653213 -0.033693317 0.13312559 0.11551332 0.15919751
-0.09679487 -0.15907924 0.03471824 -0.051191524 0.16177976 -0.15238832 0.072058685 -0.06342307
-0.122787535 0.1367618 0.007204547 0.11380739 -0.10088893 -0.011597913 -0.041889634 -0.07494236
0.092902526 0.16861787 0.104583174 -0.10886242 0.086711966 5.1290343e-05 0.115770124 -0.27467376
-0.15505786 -0.003346043 0.08394519 0.04964206 0.20042844 0.18466985 0.05970799 -0.09295514
0.15164487 0.1397789 0.03707632 0.2054429 -0.07112829 0.05363286 -0.13334714 0.08890019
0.08857185 0.09212387 -0.116959736 -0.05580755 0.12745874 -0.053845953 0.053287294 0.03470908
-0.12286004 0.022043364 0.10795809 0.06495851 0.08111312 -0.046336528 -0.15127786 0.12990858
0.07684657 -0.101472534 -0.11499528 0.092274554 -0.012534004 0.098674946 -0.0748667 0.030280132
-0.051782344 0.12913354 -0.07496409 -0.008513383 0.0020284874 0.046756636 0.18392886 -0.1043518
0.04103989 -0.113579094 -0.027606336 -0.1747686 -0.1249637 0.1408563 -0.009565879 0.20929551
0.06734178 0.16659312 -0.15898594 -0.017367251 0.21835285 -0.024820346 -0.07725373 0.14009337
-0.038973566 -0.00068788306 -0.06011191 -0.08342388 -0.19281696 -0.03015041 -0.029676557 0.030877765
-0.07205694 0.060099915 0.26828903 -0.03330347 -0.15135118 0.010674233 0.09495587 0.13173415
0.15069513 -0.32927895 0.40457645 -0.053422734 -0.102499306 0.26356068 0.10807629 0.114517555
-0.0072464854 -0.013801275 0.14625478 0.2387406 -0.2222994 -0.10767698 -0.32291633 0.0030581257
-0.032506388 0.05876142 -0.043787487 0.24057932 -0.0323365 -0.014581035 -0.0010579132 -0.014540445
-0.09990316 -0.0657283 -0.0011141367 0.14693418 0.0023037805 -0.25173554 0.051539075 -0.14776023
0.09113574 0.07939208 -0.0020438689 0.006671567 -0.53249365 -0.058666144 -0.1075803 -0.10935868
-0.1535598 -0.04428079 0.14011532 -0.008727082 0.024791215 -0.08789288 0.016673502 -0.08467225
00000000: af68 e0bd 083d a0bc 4390 9cbd 0500 e8bb
00000010: cedc 0ebe 2804 9fbd 5670 193e 2f6a 2fbe
00000020: 2a84 4d3d 3a2d 763d cc98 debd 620f 82bd
00000030: 86e8 d5bd 0f5d 32be e337 e93d 7059 a93c
00000040: 8711 ed3d 1e5e e53d 5b68 233c 6a2b fcbd
00000050: 22a1 fc3d b9d1 2bbd 4a17 a5bb f3c8 37be
00000060: 0bbc 3d3d 20de 103e 4a5d 10be 554b b83d
00000070: 3e38 8fbd 9373 4d3c 205d 8f3d e9ee fdbd
00000080: 74f4 06bb 5bb1 f5bd 7566 1f3e 8d57 6a3e
00000090: 8d27 43bc 5293 2abe d737 0dbe 6714 8d3d
000000a0: 9e77 9f3b ae63 cd3d 9f88 a0bd 4feb d63d
000000b0: 889d 053e e7d7 0e3e 0225 1cbe 1466 81bd
000000c0: 6b7e 22be 9fc3 1bbe ad4b 85bd c7cf 623d
000000d0: dedf 19bd 4576 32be a255 acbc 98a4 08bd
000000e0: 1aa3 0d3c cf06 ec3b 11c6 ebbc 352b 8f3d
000000f0: e4ac ddbd d5c7 d43d 892c 733e 8800 bebd
00000100: 0680 0f3e 3014 01be 6845 39bd 0b59 d4bd
00000110: 6581 3dbb e371 d8bc fda6 d5bc d420 1fbe
00000120: 33e9 413d ea79 bf3d 9e08 acbb e8bd 713d
00000130: 9869 453d 914a 88bd 065d fc3b 919b 063e
00000140: 7979 e63d fd01 1ebe f4cf ed3d 53a9 b2bc
00000150: 64c2 a63d 3491 c23d ee70 06be 088a 50bd
00000160: 1205 f93c f815 0b3e f303 2e3d 6ef1 ae3d
00000170: 527e 36bd 9909 8d3d 90d6 c63d 6ef1 1b3d
00000180: 0df2 debd 7b25 a1bd 4fd8 763d a3b2 c5bd
00000190: 0102 0abd 1352 083e 3f92 ec3d ac04 233e
000001a0: 643c c6bd abe5 22be b734 0e3d 34ae 51bd
000001b0: 98a9 253e af0b 1cbe 8193 933d f4e3 81bd
000001c0: 0878 fbbd 490b 0c3e 1f14 ec3b d913 e93d
000001d0: db9e cebd 2c05 3ebc 7794 2bbd 617b 99bd
000001e0: ae43 be3d 2aaa 2c3e b42f d63d 43f3 debd
000001f0: 0b96 b13d 9620 5738 e318 ed3d 0aa2 8cbe
00000200: 7dc7 1ebe 4949 5bbb 75eb ab3d 7955 4b3d
00000210: 1d3d 4d3e 181a 3d3e 5e90 743d 445f bebd
00000220: cb48 1b3e 3322 0f3e 57dd 173d a05f 523e
00000230: b5ab 91bd 21ae 5b3d 278c 08be 4e11 b63d
00000240: 2865 b53d 71ab bc3d 9688 efbd 7596 64bd
00000250: 8b84 023e 938d 5cbd c743 5a3d 1c2b 0e3d
00000260: 0b9e fbbd 4994 b43c 2219 dd3d f808 853d
00000270: a31e a63d 5fcb 3dbd 95e8 1abe c106 053e
00000280: bc61 9d3d d5d0 cfbd a582 ebbd 71fa bc3d
00000290: 6c5b 4dbc 1716 ca3d b653 99bd 0a0e f83c
000002a0: b919 54bd 953b 043e c686 99bd b77b 0bbc
000002b0: 5ff0 043b e383 3f3d d957 3c3e 66b6 d5bd
000002c0: 7219 283d 289c e8bd af26 e2bc 8af6 32be
000002d0: f8ec ffbd a23c 103e 34ba 1cbc 9051 563e
000002e0: 7dea 893d 6397 2a3e 36cd 22be c445 8ebc
000002f0: e497 5f3e 0a54 cbbc 3437 9ebd a374 0f3e
00000300: bfa2 1fbd 0d53 34ba e837 76bd 24da aabd
00000310: cf71 45be fefd f6bc 401c f3bc 5ef3 fc3c
00000320: 9792 93bd 542b 763d 2e5d 893e 3869 08bd
00000330: cefb 1abe fae2 2e3c 3978 c23d 51e5 063e
00000340: d34f 1a3e 4097 a8be a524 cf3e ccd1 5abd
00000350: 28eb d1bd 6df1 863e 1a57 dd3d 2e88 ea3d
00000360: ed73 edbb be1e 62bc d0c3 153e 6a78 743e
00000370: 74a2 63be c085 dcbd 4a55 a5be d66a 483b
00000380: 6b25 05bd d1af 703d 825a 33bd 6d5a 763e
00000390: 4773 04bd 4be5 6ebc ada9 8aba 0c3b 6ebc
000003a0: 079a ccbd 8f9c 86bd 3908 92ba ea75 163e
000003b0: 06fb 163b 7be3 80be a31a 533d 754e 17be
000003c0: 60a5 ba3d 5198 a23d 6ef2 05bb 299d da3b
000003d0: 8151 08bf e94b 70bd 0f53 dcbd 72f7 dfbd
000003e0: c83e 1dbe c65f 35bd 647a 0f3e 09fc 0ebc
000003f0: f216 cb3c 2f01 b4bd de96 883c a568 adbd

bias f4 [128]
-0.07675962 -0.13563077 -0.1313073 -0.20033933 -0.04910834 0.14558607 0.17824444 0.09034256
-0.11128759 0.07017609 0.2885629 0.16148336 0.019945176 -0.1772326 -0.044763256 -0.13514335
0.19140415 -0.02833704 -0.20068347 0.0032975457 -0.0620078 -0.09109698 0.0803166 -0.05868148
-0.02147178 -0.002890722 -0.09891486 -0.1259974 0.13664164 0.07874587 -0.11181133 0.0069551445
0.1073097 0.06706364 0.1441619 -0.09822651 0.10567176 0.090983786 -0.048755545 0.028509285
0.07186529 0.036371034 0.088521205 -0.108448796 0.13015781 -0.062429227 0.09727761 -0.055052627
0.28720784 0.13498706 0.02388335 0.05432731 -0.03841008 0.006219446 0.19562107 0.20910704
0.14436772 -0.018714746 -0.10701247 -0.04699826 -0.12847318 0.059052777 -0.024661917 0.12981182
0.14346763 -0.028836265 0.12807992 -0.07761136 0.05846368 0.02588075 0.031042505 -0.19406183
-0.119165465 -0.0911232 -0.022321766 0.092245914 -0.1052829 -0.19443896 0.16403975 -0.10426224
0.09439038 -0.27047664 -0.14991358 0.19120763 -0.12435947 0.055833027 0.14209594 0.09512036
0.050496843 -0.111628264 0.13814771 0.07151751 -0.19263044 -0.058826443 -0.15544774 0.07357977
0.09124274 -0.16228518 0.08795395 -0.090960085 -0.082462154 0.18548545 0.15679798 -0.042961508
-0.089140415 0.07613574 0.020128418 -0.09694516 -0.024260422 0.032769576 -0.020736763 0.13469823
-0.13488115 0.17658825 -0.07786555 -0.18743274 0.10723671 -0.13099283 -0.14684951 0.0067027244
0.16299282 0.14902669 -0.105609894 -0.06183712 0.064126395 0.07129111 0.25755227 -0.05676873
00000000: 2634 9dbd cbe2 0abe 6c75 06be c125 4dbe
00000010: d425 49bd 8414 153e b685 363e 8505 b93d
00000020: bfea e3bd 7bb8 8f3d 84be 933e e55b 253e
00000030: 1164 a33c 767c 35be ad59 37bd 0563 0abe
00000040: 73ff 433e 1523 e8bc f87f 4dbe a31b 583b
00000050: e4fb 7dbd 0e91 babd 087d a43d fe5b 70bd
00000060: 96e5 afbc 4472 3dbb e093 cabd 7605 01be
00000070: c9eb 0b3e 8445 a13d 57fd e4bd fbe7 e33b
00000080: 30c5 db3d a958 893d 2d9f 133e fb2a c9bd
00000090: 706a d83d b555 ba3d e5b3 47bd 4e8c e93c
000000a0: 1c2e 933d cbf9 143d 9b4a b53d 671a debd
000000b0: 1748 053e cab5 7fbd 7c39 c73d dd7e 61bd
000000c0: e80c 933e 0c3a 0a3e 04a7 c33c 5086 5e3d
000000d0: e353 1dbd 7fcc cb3b e450 483e 2820 563e
000000e0: 22d5 133e ab4f 99bc 5b29 dbbd 3f81 40bd
000000f0: 798e 03be 53e1 713d ca07 cabc 64ed 043e
00000100: 2ee9 123e 083a ecbc 6227 033e b4f2 9ebd
00000110: 9d77 6f3d de03 d43c da4c fe3c 25b8 46be
00000120: 060d f4bd cd9e babd 23dc b6bc 6deb bc3d
00000130: 909e d7bd 021b 47be 09fa 273e 7187 d5bd
00000140: be4f c13d ea7b 8abe f282 19be efcb 433e
00000150: 2eb0 febd 2cb1 643d 9981 113e 77ce c23d
00000160: c7d5 4e3d 5c9d e4bd 9876 0d3e c677 923d
00000170: ea40 45be fff3 70bd b12d 1fbe feb0 963d
00000180: 79dd ba3d 162e 26be 3321 b43d 4849 babd
00000190: ebe1 a8bd e6ef 3d3e a68f 203e 68f8 2fbd
000001a0: 408f b6bd 0eed 9b3d 5ae4 a43c 2f8b c6bd
000001b0: cbbd c6bc 6439 063d 25e0 a9bc 55ee 093e
000001c0: 491e 0abe 8dd3 343e f977 9fbd 5eee 3fbe
000001d0: ec9e db3d fc22 06be b85f 16be 87a2 db3b
000001e0: 97e7 263e 749a 183e 004a d8bd ec48 7dbd
000001f0: b354 833d 1301 923d e4dd 833e 5486 68bd

weight f4 [17, 128]
0.047498297 -0.09512113 0.0469957 0.047837365 0.004028082 -0.010536841 0.24539052 0.008615631
0.062149465 0.041870326 0.02427913 0.034053884 -0.019314434 0.013002248 -0.052255232 -0.08098922
0.07213258 -0.071776785 0.035650108 -0.20165817 0.54452956 0.020084366 -0.07959183 -0.053311702
0.00058890757 0.0014550461 0.10047715 -0.04178528 0.021089662 0.004349327 0.091411285 -0.019218242
0.01860833 -0.020810958 0.057482243 -0.019312553 -0.0025534572 0.04441273 -0.04273937 -0.05017052
-0.3235791 -0.01735371 0.0082679745 -0.037401788 -0.31872135 0.07585788 -0.033844158 0.18669094
-0.07316827 0.04664929 -0.03350675 -0.0807296 -0.014421176 -0.035338588 0.122284584 -0.010196783
-0.29606542 -0.58112735 0.051465705 0.34107172 0.042959552 -0.009676097 -0.011477188 -0.024079898
-0.018419776 0.47934917 -0.06587989 -0.057753675 0.040766325 -0.0016626944 -0.00065154664 -0.018060686
0.055401914 -0.03553386 -0.5512245 0.32177836 -0.049676858 0.040540557 0.45261 0.025054371
0.038021717 0.1843512 0.028671134 -0.2120062 -0.025787134 0.0353438 -0.04681447 -0.010100167
0.003668052 0.044608936 0.016361797 -0.0011847186 0.016832469 -0.010494166 0.1167254 0.05387688
-0.013821238 0.07999783 0.037819996 0.06836354 -0.017091481 -0.019833263 0.011085583 0.019698564
-0.07506189 -0.059996482 -0.029725792 0.0187151 0.0077043646 0.101315655 -0.05135185 0.048367303
0.020973431 0.030109936 -0.06889358 -0.016923673 -0.06606754 -0.011281274 0.050965004 0.0053599183
-0.0061053033 0.030696847 -0.0019276512 0.068518214 0.033855572 -0.041758247 0.014479646 -0.0022641527
-0.021113684 -0.14646384 -0.032727174 0.21978298 -0.05501421 -0.29651758 0.074818976 0.06414762
0.018099828 0.26015404 -0.110339284 -0.040849537 -0.157475 0.006201873 -0.015511318 0.1319059
-0.12795094 0.028675003 0.070489705 -0.020318968 0.124108866 -0.3023433 -0.09065588 0.10759231
0.08642093 0.049222883 0.18198228 0.1778414 0.078247406 -0.1490743 0.042306256 -0.02210972
-0.14407897 0.07690794 -0.022250637 -0.09966978 0.09005467 -0.04666223 -0.04694622 -0.03932337
0.0014898923 -0.009916994 -0.2868772 -0.0054616956 0.05401407 -0.06707554 0.033877138 0.030047081
0.52815115 0.33689168 0.041432258 0.0025131467 0.0152950175 -0.12329007 0.21128887 -0.089347534
-0.15644 -0.05222424 -0.018021107 -0.027877083 0.25588313 -0.076859534 -0.08334016 -0.07823331
0.14547813 0.17913899 -0.1117024 0.04905746 0.11233536 0.094744965 0.087881334 0.0007252409
0.0366588 -0.2737776 -0.04962366 0.102009974 -0.1076351 -0.3998477 -0.09164656 -0.014388519
-0.10656893 0.065196455 -0.105558395 -0.020432103 0.06076367 0.08733133 0.22130632 -0.111904964
-0.018971756 0.13727777 -0.19210303 -0.16304976 0.019273575 0.19469042 0.081046745 0.023155209
0.48871565 -0.00019053611 -0.032167546 0.080006115 -0.10954258 -0.084283024 -0.25790143 -0.1651726
0.10813274 -0.055709742 0.29215842 -0.025660902 -0.23365629 0.11748794 -0.2135805 0.10429405
-0.09871547 -0.02046949 0.024755668 -0.04128619 -0.09331862 -0.25064966 -0.038583897 -0.039483976
-0.035822857 -0.14567125 -0.011694664 -0.011529197 -0.050308842 0.20154703 -0.18359096 0.15723222
00000000: 938d 423d dece c2bd 907e 403d 1df1 433d
00000010: 00fe 833b b7a2 2cbc a747 7b3e 9328 0d3c
00000020: 7090 7e3d 3880 2b3d 07e5 c63c 167c 0b3d
00000030: 4e39 9ebc 6107 553c 9509 56bd addd a5bd
00000040: 3fba 933d b5ff 92bd d905 123d 7b7f 4ebe
00000050: 4a66 0b3f f887 a43c 0b01 a3bd 5f5d 5abd
00000060: eb60 1a3a 3fb7 be3a f7c6 cd3d 0b27 2bbd
00000070: 3ac4 ac3c cd84 8e3b d735 bb3d 936f 9dbc
00000080: 7f70 983c be7b aabc 8072 6b3d 5c35 9ebc
00000090: e757 27bb 1fea 353d 7a0f 2fbd 9a7f 4dbd
000000a0: 29ac a5be 5e29 8ebc 6676 073c 9e32 19bd
000000b0: 722f a3be 605b 9b3d 2ca0 0abd e92b 3f3e
000000c0: 3fd9 95bd 5313 3f3d 603e 09bd 8f55 a5bd
000000d0: cc46 6cbc 32bf 10bd 5770 fa3d 6810 27bc
000000e0: e395 97be c3c4 14bf b4cd 523d f4a0 ae3e
000000f0: 5bf6 2f3d 7e88 1ebc d10a 3cbc 3543 c5bc
00000100: 12e5 96bc 416d f53e 09ec 86bd 1e8f 6cbd
00000110: 97fa 263d c4ee d9ba 8ecc 2aba 01f4 93bc
00000120: 1eed 623d f48b 11bd 0d1d 0dbf 22c0 a43e
00000130: f679 4bbd db0d 263d 7fbc e73e d33e cd3c
00000140: a9bc 1b3d 90c6 3c3e badf ea3c 2718 59be
00000150: 8a3f d3bc a9c4 103d 88c0 3fbd 2c7b 25bc
00000160: b363 703b dcb7 363d 2d09 863c 8f48 9bba
00000170: 3fe4 893c b9ef 2bbc ba0d ef3d 01ae 5c3d
00000180: 7972 62bc e7d5 a33d 24e9 1a3d 2f02 8c3d
00000190: 6f03 8cbc 5e79 a2bc 4ea0 353c e25e a13c
000001a0: 0cba 99bd dfbe 75bd 8183 f3bc 6950 993c
000001b0: e574 fc3b 957e cf3d 5156 52bd cb1c 463d
000001c0: 79d0 ab3c 1da9 f63c 1418 8dbd 84a3 8abc
000001d0: 6b4e 87bd 18d5 38bc aec0 503d 41a2 af3b
000001e0: ff0e c8bb f477 fb3c 3ea9 fcba 4753 8c3d
000001f0: 24ac 0a3d b20a 2bbd 0a3c 6d3c 2e62 14bb
00000200: 9bf6 acbc 9efa 15be ee0c 06bd ca0e 613e
00000210: 9556 61bd 27d1 97be b13a 993d d45f 833d
00000220: 1746 943c e932 853e 90f9 e1bd d851 27bd
00000230: 2041 21be 1539 cb3b 2f23 7ebc 5712 073e
00000240: 9205 03be d7e7 ea3c e85c 903d f773 a6bc
00000250: ca2c fe3d becc 9abe caa9 b9bd 5b59 dc3d
00000260: 75fd b03d ef9d 493d 9059 3a3e 0e1c 363e
00000270: 2d40 a03d efa6 18be 5349 2d3d 721f b5bc
00000280: 7089 13be e981 9d3d f846 b6bc ab1f ccbd
00000290: 956e b83d e520 3fbd ae4a 40bd 8b11 21bd
000002a0: 7d48 c33a e37a 22bc 91e1 92be 06f8 b2bb
000002b0: dc3d 5d3d e75e 89bd c1c2 0a3d 4c25 f63c
000002c0: ea34 073f 117d ac3e dfb4 293d 9bb3 243b
000002d0: f497 7a3c 817f fcbd 1c5c 583e d7fb b6bd
000002e0: cf31 20be 16e9 55bd 00a1 93bc 7b5e e4bc
000002f0: 1d03 833e 8868 9dbd 3fae aabd c938 a0bd
00000300: 38f8 143e 3670 373e 3ac4 e4bd 7af0 483d
00000310: 1510 e63d a609 c23d 21fb b33d 181e 3e3a
00000320: 8a27 163d 942c 8cbe 2e42 4bbd 9bea d03d
00000330: cb6f dcbd d6b8 ccbe 31b1 bbbd d3bd 6bbc
00000340: d040 dabd b885 853d 002f d8bd 3a61 a7bc
00000350: 53e3 783d c5da b23d 209e 623e 6e2e e5bd
00000360: a86a 9bbc 8b92 0c3e a8b6 44be 84f6 26be
00000370: 9ee3 9d3c ed5c 473e d6fb a53d feaf bd3c
00000380: f038 fa3e a6ca 47b9 1ec2 03bd 3fda a33d
00000390: dc57 e0bd 949c acbd a80b 84be 0223 29be
000003a0: b374 dd3d e62f 64bd ca95 953e d036 d2bc
000003b0: 9843 6fbe 849d f03d d9b4 5abe 1e98 d53d
000003c0: 562b cabd a2af a7bc 66cc ca3c b51b 29bd
000003d0: d51d bfbd 2755 80be 260a 1ebd f3b9 21bd
000003e0: fdba 12bd d82a 15be fa9a 3fbc f5e4 3cbc
000003f0: a510 4ebd 5862 4e3e 45ff 3bbe 7c01 213e
