models/unconstrained/olfactory_conditioner_unconstrained.pth (torch, 6976 bytes, 2 tensors)

weight f4 [8, 138]
000000 f6 75 08 be 9d 3f e2 3d 9b ce d2 3d c7 5c d2 bc
       -0.13326249 0.110472895 0.10293313 -0.025679005
000010 98 5c d7 3d 08 8d ca bd 87 92 22 bc 44 0f ca bc
       0.10515708 -0.09890181 -0.00992263 -0.024665482
000020 70 d2 3b bd 98 ce 81 3d fd aa b7 bd 71 16 05 bd
       -0.045854986 0.06338233 -0.0896816 -0.032492105
000030 49 00 04 3e 9e 13 7b bd c8 16 8c bd ff cb a2 3d
       0.12890734 -0.061298005 -0.06840283 0.079490654
000040 69 25 91 3c 66 ad 85 3d ac ae a7 3d 98 68 19 be
       0.017718034 0.06527214 0.08187613 -0.14981306
000050 ae 45 60 be 7d 41 24 bd f9 cf 0f 3d c5 2c 8d bd
       -0.2190158 -0.040101517 0.035110448 -0.06893305
000060 69 fa 5c 3e 15 d2 b3 3c bb ba 04 be 8d f1 49 bd
       0.21579899 0.02195076 -0.12961857 -0.049302626
000070 3a 69 dc bd 82 51 fc 3d a9 70 95 bd a4 cb 1f bd
       -0.10762258 0.12320234 -0.07296879 -0.039012566
000080 b3 9c 09 be 4a 19 8d 3d c8 c0 bf bc c7 6b 80 bc
       -0.13438682 0.06889589 -0.023407355 -0.015676392
000090 a0 97 2e bb 00 ef cb bc 97 b1 30 bc c1 03 17 3d
       -0.0026640669 -0.024894238 -0.010784528 0.036868814
0000a0 46 73 38 3d 4a 2e 0b bd 71 82 ce bd 82 8e 12 bd
       0.04503181 -0.03397969 -0.100834735 -0.035780437
0000b0 97 66 3a bd f6 3a 55 3b 6c e3 fc 3c 5f 0e ad bd
       -0.045507994 0.0032536364 0.030870162 -0.08450007
0000c0 67 63 b4 3d 95 30 af 3b 18 82 a3 3b a8 3f d0 bc
       0.08808022 0.0053463676 0.0049898736 -0.025420979
0000d0 cd 63 69 bd 02 9e b1 3b d4 12 19 3d 30 0e 48 be
       -0.056979943 0.0054204473 0.03737147 -0.19536662
0000e0 17 86 45 be f6 41 4f bc b8 4b 66 bd 0a eb 25 3c
       -0.19289432 -0.012650004 -0.056224555 0.010126838
0000f0 ff ef 35 3a 88 c7 fa bd 94 66 9d bc 19 f3 9d 3d
       0.0006940364 -0.12245089 -0.019213952 0.07712383
000100 4a 74 88 bd 70 c9 40 bc 89 63 a8 3d fb e9 89 bc
       -0.066628054 -0.011766776 0.0822211 -0.016835203
000110 10 be 88 bc 7c a7 86 bd c3 ae a7 3c 27 5a 29 bd
       -0.016692191 -0.06574914 0.020469075 -0.04134574
000120 e2 f9 74 3a 44 7a ae 3d 7f 9f cb bd 64 d9 08 be
       0.0009345097 0.08519414 -0.09942531 -0.13364178
000130 9f a3 16 3e 49 45 c9 3d 69 00 15 bd e4 cb 28 3d
       0.14710854 0.09827668 -0.036377344 0.04121007
000140 66 67 a0 3d 1b 53 1b 3b d2 a6 64 bd 1a da ac bd
       0.07832222 0.0023700658 -0.055823155 -0.08440037
000150 91 0c 81 bb e2 e9 f7 bd d5 33 fc bb 55 d2 d8 3d
       -0.0039382656 -0.121051565 -0.0076966085 0.10586993
000160 31 a7 90 3d 6b 37 ee 3c 7f df 07 3e 10 f1 81 bd
       0.07063139 0.02907916 0.1326885 -0.06344807
000170 ec a5 13 bd 40 35 4b bd e8 78 30 bd 5c c5 cd 3d
       -0.036046907 -0.04961133 -0.043084055 0.10047409
000180 73 50 35 bd ee 29 b8 bc 61 2f 86 bd 7e a2 81 3a
       -0.044266175 -0.022480931 -0.065520056 0.0009890345
000190 71 e0 dd 3d 2a 0f cd 3d de 2e 2d bd 71 70 a0 3d
       0.108338244 0.10012658 -0.042281024 0.078339465
0001a0 e7 f9 0a 3c dc e0 8a 3e f3 85 d9 3e b5 24 07 be
       0.008482433 0.2712468 0.42485008 -0.13197596
0001b0 28 71 23 be c8 5f 57 3d 68 ab b4 bc ab 34 20 3e
       -0.15961134 0.05258158 -0.02205439 0.15645091
0001c0 05 55 96 3d 6b a5 78 be 01 ae 65 be 54 ed 88 3d
       0.07340435 -0.24281852 -0.22429658 0.06685892
0001d0 8c e2 95 bc 54 c4 07 bb f2 55 33 3d 56 ed 6a bd
       -0.018296503 -0.0020716386 0.043783136 -0.057355247
0001e0 4d 11 ab 3d 81 3b 26 3e 84 96 8b bd 6d 01 a5 3c
       0.08352909 0.16233636 -0.06815818 0.020142281
0001f0 3f 56 1b 3e ee 6f 39 bc 72 7e d5 3d d2 9b 96 bc
       0.15169619 -0.01131819 0.10424508 -0.018384848
000200 b8 f9 d2 bd 13 23 d7 bb 62 60 1c bd b9 a3 80 bd
       -0.10301536 -0.0065654605 -0.038177855 -0.062812276
000210 61 00 00 be fc 5d 61 3d d4 8b b0 bb 22 0b 75 3c
       -0.12500145 0.05502127 -0.0053877626 0.014956268
000220 fd 71 0f be 57 ae 69 bb 10 61 46 be e2 28 79 bb
       -0.14008327 -0.0035656893 -0.19372964 -0.0038018753
000230 5c 1a ff 3c 8e 7b 34 bd 5f da 10 bd 97 b8 cf 3b
       0.031140499 -0.044063143 -0.035364505 0.0063391435
000240 dc ad fb bc 7d 34 a5 bc 99 e4 7b bd 28 08 a5 3d
       -0.030722551 -0.02016663 -0.061497305 0.08058196
000250 f1 5a 87 bd b5 8a 67 bd 1d a5 be 3d 13 23 d0 bc
       -0.066091426 -0.056528766 0.093088366 -0.02540735
000260 9c 88 e0 bd 33 0f 87 be 3b cd a1 3c e9 a7 83 3d
       -0.10963556 -0.26378784 0.019751182 0.06428511
000270 26 a6 85 3d a2 40 d6 bb 4b 70 fd bd a5 97 19 3d
       0.06525831 -0.0065384666 -0.12374934 0.037498135
000280 38 9d 62 3d 66 90 09 3d cd b2 f1 bd 53 e7 69 bd
       0.055325717 0.033584975 -0.11801682 -0.057105374
000290 7f d1 1e be da f5 31 3d bc 0b cb bd a0 7d 61 3d
       -0.15509604 0.043447353 -0.099143475 0.055051446
0002a0 d8 ae 48 3b 1b 0b 41 3d 1a f5 4f bd d1 a9 3f 3d
       0.0030621793 0.04712973 -0.050770856 0.04679281
0002b0 19 68 a8 3e 3b f8 c0 bd 93 fd 89 bd 98 d2 51 3d
       0.3289192 -0.09422346 -0.067378186 0.05122623
0002c0 74 c4 d6 bd 1e 10 3e bd f8 5a e4 bc 95 be 4b 3d
       -0.10486689 -0.04640209 -0.027875409 0.0497423
0002d0 a7 22 6e 3d ce 3a c6 bc f1 cb a8 bd 1f d8 30 bd
       0.058138516 -0.024197962 -0.08242024 -0.04317486
0002e0 98 5a 45 3e 47 83 f3 bd 71 75 15 3e ef 5f 84 3e
       0.1927284 -0.118902735 0.14595582 0.25854442
0002f0 bf 01 a2 bd 36 2e e7 3b ef d1 16 bc 27 f7 5a 3b
       -0.07910489 0.0070550693 -0.0092053255 0.0033411474
000300 69 aa dd bc 94 c6 36 3e 14 b8 cb 3c 80 6e 2b be
       -0.027058797 0.17849189 0.024868049 -0.16741371
000310 51 55 1c bd c1 3a c5 3d 31 ad be 3d 28 05 cd bd
       -0.0381673 0.09630347 0.093103774 -0.10010749
000320 79 04 20 be 00 9a 68 bd 9a 55 b2 bc 04 14 10 bd
       -0.15626706 -0.05678749 -0.021769334 -0.03517534
000330 89 fa e4 bc 1e d8 dc 3c a2 b0 27 bd 77 db d6 bd
       -0.027951496 0.026958521 -0.040939935 -0.10491078
000340 e4 cd ac bd 57 27 7e 3d bb 87 8f bd 92 c0 9f 3c
       -0.08437708 0.062049236 -0.070083104 0.019501004
000350 6f b4 ec 3b 5c f3 7b bd 27 8b 0b be 7a c1 34 bb
       0.007223658 -0.061511382 -0.13627301 -0.0027581141
000360 8e 96 3e bc cf 13 c9 3d af 37 1f 3d ee f0 69 bb
       -0.011632575 0.09818231 0.038871463 -0.0035696584
000370 80 bd f1 3d a3 ec 9e 3d 9a 97 12 3c a9 1c e5 3d
       0.118037224 0.077599786 0.008947277 0.11187107
000380 b3 86 0e 3c d2 9e 4f 3c ce 6b 6b 3e c7 01 90 3b
       0.008699107 0.012672143 0.22990343 0.004394743
000390 ca aa 6f 3d 8d b5 80 bd 91 33 1c b9 9f 2c 12 bd
       0.058512487 -0.06284628 -0.0001489653 -0.035687085
0003a0 cd 03 9a 3c 72 77 4e bd 90 a6 71 bd c8 d1 bc bd
       0.01880064 -0.05040688 -0.058996737 -0.092197
0003b0 9b 5b a5 bd fe da 2f 3d 75 55 cd 3c ed db 86 3d
       -0.08074113 0.042933457 0.025065163 0.06584916
0003c0 f6 e6 80 bd 14 72 86 3c 84 bc f7 3d b1 35 6f 3e
       -0.06294052 0.016411819 0.120965034 0.23360325
0003d0 bf 37 16 3d 30 f0 21 3b 87 b2 fd bd e8 4d 32 bd
       0.036674257 0.0024709813 -0.12387567 -0.04353133
0003e0 62 52 c0 3c 28 19 78 3e d5 ac b1 bd e6 b4 86 be
       0.023476783 0.24228346 -0.08675543 -0.2630989
0003f0 e3 52 a4 bd e2 f2 01 3e 16 f1 12 bd d9 57 c5 bc
       -0.08023622 0.12690309 -0.03587445 -0.02408974

bias f4 [8]
000000 3f 7b a7 3e e7 66 2b 3e 69 46 8d be f0 cc 81 be
       0.32711217 0.16738473 -0.2759278 -0.25351667
000010 b1 a0 98 be 87 8f 08 bd 7a d6 ba 3e 19 b9 a3 be
       -0.29810098 -0.033340003 0.36491758 -0.31977156
