models/constrained/checkpoints/20250427/egnn_20250427.pth (torch, 85678 bytes, 24 tensors)

weight f4 [32, 1]
000000 5d d4 d8 bd 40 08 c8 3c 7b 11 5b bf cc 5a a0 be
       -0.1058738 0.024417996 -0.8557355 -0.31319273
000010 c7 a6 29 3f 10 ad 01 bf de 94 dd 3e c4 84 1c 3f
       0.6627011 -0.506547 0.4327764 0.61140084
000020 b8 8c f0 be 0c b6 e0 3e 3c 71 ab be c0 1d c2 bd
       -0.4698236 0.4388889 -0.33484828 -0.094783306
000030 04 6d 62 be af c6 9b 3f 8c 12 a8 be 18 36 50 bf
       -0.22111899 1.2170008 -0.3282665 -0.8133254
000040 ec 0f 70 bf c9 e2 36 3f 5c 4d 07 bf a5 a3 1e 3f
       -0.93774295 0.71439797 -0.52852416 0.6196845
000050 c2 8c 52 bf a4 28 b3 3e 72 7a a0 bf 8a 01 38 3f
       -0.8224603 0.34991944 -1.2537367 0.7187735
000060 09 b9 44 bf 5e e5 69 bf 13 88 8d 3f 6c 9c 98 3e
       -0.7684484 -0.9136561 1.1057152 0.2980684
000070 96 89 9e 3f ce de 26 bf 08 19 52 3e 55 63 41 bf
       1.2385738 -0.6518372 0.20517361 -0.75542194

bias f4 [32]
000000 0a 6d ba 3d 18 38 8a be 4f 6f 59 3f 82 e2 7e bf
       0.09102829 -0.2699592 0.8493547 -0.99564373
000010 9e e6 40 3c 1e 86 5a bf 72 1e a7 3e 3c 6c e2 3e
       0.011773733 -0.85360897 0.32640415 0.442232
000020 54 c6 b6 be f0 27 79 bf 00 8e 9a bd c2 48 1b bf
       -0.35698187 -0.97326565 -0.075466156 -0.60657895
000030 ce ae 0f 3f dc f3 c3 be 10 16 d6 be 38 53 dc be
       0.56126106 -0.38271987 -0.41813707 -0.4303224
000040 0c d7 47 bf 89 19 73 3e 9a 48 09 bf fa 7c ed 3c
       -0.7806251 0.2374021 -0.53626406 0.028990258
000050 de d8 31 bf 30 69 ec 3d 08 a2 06 3e fe 85 8e bb
       -0.6947154 0.115435004 0.13147748 -0.004349469
000060 78 7f 3f 3f fd 54 d6 3e 5f 13 1b 3f 61 ec 6a 3e
       0.74803877 0.41861716 0.6057643 0.22941734
000070 38 96 66 3e b0 35 13 be 8c 63 c3 be 54 f8 40 3f
       0.22518241 -0.14375949 -0.38161886 0.7537892

weight f4 [8, 32]
000000 e7 47 e0 bd 87 5e 10 3d 3d a3 f2 3b 1f 47 ae 3c
       -0.10951214 0.0352464 0.0074047134 0.021274148
000010 21 75 df bd c4 e8 0c 3d 19 13 d4 bd 92 bb d7 bd
       -0.109110124 0.03440167 -0.10355205 -0.10533823
000020 9f f8 98 3d bc 00 92 bd 61 2d 6d 3d 08 e4 a2 bd
       0.07469296 -0.07129046 0.057904605 -0.0795365
000030 02 b1 14 3e 84 c7 92 be 6a 00 cf 3d bb 60 1f 3e
       0.14520648 -0.28667843 0.10107501 0.15564243
000040 24 0c 7b 3d d4 46 f2 bd 45 61 01 3e db 11 a5 38
       0.061290875 -0.11829916 0.12634762 7.871139e-05
000050 01 e5 15 bd ee 54 5b 3a 72 19 9e be c8 91 3b be
       -0.03659535 0.00083668425 -0.30878788 -0.1831733
000060 90 b1 67 3d ea ff bf bd 13 f5 c6 3d f9 ef 3a be
       0.05656582 -0.093749836 0.09714713 -0.18255605
000070 7e a9 74 be d8 35 1a be 70 8c 0a be 85 90 5b 3d
       -0.23892781 -0.15059602 -0.13530135 0.05360462
000080 5c 94 81 39 9d 71 22 3d a4 88 0e 3a 04 c6 41 3c
       0.00024715334 0.03965913 0.0005437231 0.011826996
000090 03 43 43 bc 31 5b e4 bd 2b 59 2f 3e 0a 11 b0 bd
       -0.011917832 -0.11150206 0.17123859 -0.08597
0000a0 9c 03 05 bc a8 4d 6a bd 9a be f1 bc db 39 00 be
       -0.008118536 -0.057202965 -0.029509831 -0.1252207
0000b0 ff d6 9a 3d 6c 31 d5 3e d2 ae 1d be 57 ed 03 bd
       0.075605385 0.41639268 -0.1539872 -0.032208767
0000c0 48 aa e7 3d 4f e9 fe bd 76 2a 0e 3e f7 51 28 bd
       0.113117754 -0.12446844 0.13883385 -0.041093793
0000d0 28 1d 89 bd 13 5a 09 be df 90 66 3e d4 e9 a3 bd
       -0.06695014 -0.13413267 0.22516201 -0.080035836
0000e0 b4 58 a1 3d ec 05 1f bc 03 34 3f bd a1 ac 8f 3c
       0.07878247 -0.009706002 -0.04668046 0.01753837
0000f0 ed 5e 51 3e 12 12 0a 3e 51 92 15 3d 32 e2 aa bd
       0.20446368 0.13483456 0.03651649 -0.083439246
000100 2b a9 32 be 54 b4 d6 3d 86 a2 3e be b9 a0 21 be
       -0.17447345 0.104836136 -0.18616685 -0.15783967
000110 9d ea 82 3e db 44 e1 bd ab 86 79 bd cd e6 89 bd
       0.2556962 -0.10999461 -0.060919445 -0.06733475
000120 05 d3 86 3d 04 28 04 be cf 16 2c bd b4 a2 01 3e
       0.065832175 -0.1290589 -0.04201394 0.12659723
000130 1a fa 22 be 6d 1b d0 bd 1b 37 18 3e de 80 27 be
       -0.15915719 -0.10161481 0.14864771 -0.16357753
000140 4e 00 ab 3d 06 64 72 3e 2c 77 30 be 48 63 86 3e
       0.083496675 0.23670968 -0.1723296 0.2624762
000150 b8 4b 65 bd b2 52 5a 3e a2 c6 ef be 45 9c 9a 3e
       -0.055980414 0.21320608 -0.46831232 0.3019735
000160 da 43 73 be 0a db 55 be 0f a5 e5 3c c0 a4 4c 3e
       -0.23756352 -0.20884338 0.028032808 0.19984722
000170 9c 68 e9 3d 97 7b aa bd 1b cb 91 3d 60 fa 55 be
       0.11396906 -0.08324354 0.071188174 -0.20896292
000180 cf cf 53 3d f6 64 24 3e 38 2b 39 bd 5a eb 0b be
       0.051711854 0.16054139 -0.045207232 -0.13663998
000190 7b 73 b3 3e bc b2 61 3d f9 95 43 3e c6 31 25 3e
       0.35049042 0.055102095 0.19100179 0.16132268
0001a0 36 fe a7 3d 59 91 e9 3d cd 4c 43 3d 2a 08 09 3e
       0.08202784 0.11404676 0.047680665 0.1338202
0001b0 ea ba 31 3d 17 eb 85 bc b7 49 c2 3d 42 7b 91 3d
       0.043391146 -0.016347451 0.09486716 0.07103588
0001c0 3b cc 33 3c f5 ab 6d 3e 11 83 1a be fa 50 d9 3d
       0.010973985 0.23210128 -0.1508906 0.10611148
0001d0 36 4b d2 bd 21 4f 66 bd d4 f7 cc be d8 34 0b 3f
       -0.102682516 -0.056227807 -0.40032828 0.5437751
0001e0 ab 1a 7f be 69 53 db bd f3 2e 72 3e bd 75 87 3c
       -0.24912517 -0.107092686 0.23650722 0.016535634
0001f0 9b 00 a0 3e a9 a6 9b bc 2a f5 94 bc 30 b7 a6 b9
       0.31250462 -0.019000368 -0.01818331 -0.00031798473
000200 e5 b3 8d 3d d6 db a8 3d 14 81 fc bc d1 5b 02 3d
       0.06919078 0.082450554 -0.030823268 0.031825844
000210 76 2c af 3d b9 15 2c be 26 a2 b6 bd 8f f8 88 3c
       0.08553402 -0.16805162 -0.08917646 0.016720084
000220 ac 24 82 bd b8 ba 2a be 95 e1 de bd 81 b4 8c bd
       -0.06354651 -0.1667279 -0.1088287 -0.06870366
000230 90 8b 94 3d b2 99 07 be 03 e0 1d bc 04 7a e2 bd
       0.07253182 -0.13242224 -0.009635928 -0.11058429
000240 0c e6 23 be ab d1 00 be 68 82 72 bd b9 af 73 3d
       -0.16005725 -0.12579982 -0.059206396 0.059493754
000250 61 b5 1e be 87 95 d8 bd da 69 14 be 38 98 49 bd
       -0.15498878 -0.10575395 -0.14493504 -0.049217433
000260 b5 86 9f bc e2 12 7b bd 1f d5 7d 3d 89 c6 bf 3d
       -0.019473413 -0.061297305 0.061970826 0.093640395
000270 03 6d ec bc 4a 25 25 3e 61 24 2c 3e 15 ce 5f 3d
       -0.028860575 0.16127506 0.16810752 0.054639895
000280 bb 8a 80 bd cd 50 08 be e4 9a 11 3e d3 c8 22 be
       -0.06276461 -0.13312073 0.14219242 -0.15896921
000290 c5 0a 83 3d 20 ba d6 bd 4e 62 ce 3c 24 7a fb 3d
       0.063985385 -0.10484719 0.02519336 0.12279156
0002a0 46 84 00 be b2 90 d8 3d 65 2d 92 bd 9c f5 91 3d
       -0.12550458 0.105744734 -0.071375646 0.071269244
0002b0 50 30 e8 3c 24 48 bd bd ec df 48 3d 6b bd 25 3e
       0.02834335 -0.09242275 0.049041674 0.16185538
0002c0 25 28 f5 bd 9c eb 5a 3d 8a fa b9 bd 74 f9 82 3d
       -0.119705476 0.05344735 -0.0908099 0.06395236
0002d0 f2 1e 2e 3e 8b 2d b2 bd 26 04 01 3e 4b f6 1a 3e
       0.17003992 -0.08700093 0.12599239 0.15133016
0002e0 3c f4 a8 3d 2e 45 b3 bd ce 75 9b bd 0c 37 ac bd
       0.08249709 -0.08753429 -0.07590829 -0.08408937
0002f0 76 f0 1e bd 9d 12 2f 3d 55 6d fb 3d 5e 68 fc bd
       -0.03880354 0.04274236 0.12276713 -0.12324594
000300 8d 02 ac 3d 34 c4 e9 bd fe 60 01 3d 44 bc 32 3e
       0.08398924 -0.11414376 0.03158664 0.1745463
000310 a4 e1 89 3c 85 df d9 bd 6e 39 5f be 7c 7a cf 3b
       0.016831227 -0.10638336 -0.21799251 0.00633174
000320 8a 23 e0 bd 68 35 c0 bd db 16 cd 3b 9a df 23 be
       -0.109442785 -0.093851864 0.006258828 -0.16003266
000330 96 1f 83 3c e4 60 5f 3e 2a 84 8f bd 55 a1 0e be
       0.016006272 0.21814305 -0.0700763 -0.13928731
000340 83 f4 7b bc 51 5f 75 3b b8 e9 07 bc a1 0a 89 be
       -0.01537812 0.0037440846 -0.008295469 -0.26765922
000350 8d 69 eb bd 59 24 5f be 40 5d 8b 3e 62 f2 7c be
       -0.114947416 -0.2179121 0.27219582 -0.24701837
000360 aa 39 20 3d b6 08 3a bd 42 00 02 be b0 48 b7 bd
       0.039117493 -0.045418464 -0.12695411 -0.08949411
000370 c6 3d 7f be 51 fc 26 be e4 f1 60 3c c7 17 90 3c
       -0.24925908 -0.16307189 0.013729546 0.017589463
000380 80 51 28 3e 92 78 e4 bd 88 70 4d bd df b2 81 bd
       0.1643734 -0.111558095 -0.050156146 -0.06332945
000390 1d 9e 40 3e 32 9f e2 3c 0a 2f f8 3d cb 62 1e 3e
       0.18810315 0.0276638 0.12118347 0.15467374
0003a0 d7 a2 13 3e fe e3 21 3e 40 b1 33 be b2 42 fd 3d
       0.14417587 0.15809628 -0.17548084 0.12366237
0003b0 2b ee 9f bd f6 b8 ca be c1 f3 67 3d 46 32 88 3d
       -0.07809099 -0.3959424 0.056628946 0.06650214
0003c0 44 1f 15 3e 43 ea b9 3d 4e 49 f2 bd ff d8 8b 3c
       0.14562708 0.09077885 -0.11830388 0.017071245
0003d0 6d 98 9c 3d 6c bf 84 bd 79 83 d4 be 73 7f 6e 3d
       0.076462604 -0.06481823 -0.41506556 0.058227014
0003e0 be 28 45 3d d3 54 dc 3d b6 6b 8a bc 07 8f 7c 3d
       0.048134558 0.107583664 -0.016897064 0.06165984
0003f0 07 42 10 3e e3 ae 32 3e d2 94 fd 3b 03 47 25 be
       0.14087687 0.17449526 0.007738688 -0.1614037

bias f4 [8]
000000 da 33 ee 3d 65 c9 92 bd 3a 8e 05 be 3b 3c 9c bd
       0.11630984 -0.07167319 -0.13042536 -0.076286756
000010 49 5d 26 3c bf a6 85 bd 31 1a 16 be 01 83 c3 bb
       0.010154077 -0.06525945 -0.14658429 -0.0059665446

weight f4 [128, 35]
000000 18 43 0c be c1 3a 3d bc 6c 63 0e bd fe 1f dc bd
       -0.13697469 -0.011549653 -0.034762785 -0.107482895
000010 66 06 02 bd 52 27 fd bd ef ea 9c 3c 4e fc 20 3e
       -0.031744383 -0.123610154 0.019154994 0.15721247
000020 6e f0 d6 bd 53 97 d3 bd 13 ef f2 bd f6 09 e8 bd
       -0.10495077 -0.10331597 -0.11862006 -0.11330025
000030 e6 8c a3 3d 97 f9 19 3e fd b6 ee bd 07 46 17 3e
       0.079858586 0.15036617 -0.11655996 0.14772807
000040 b7 76 1a 3e be cb a8 bd a5 db ae 3d c4 b6 0e be
       0.15084349 -0.08241986 0.085379876 -0.13936907
000050 fb 06 b6 3c ae 47 05 3e 81 29 0e be e5 b2 cf bc
       0.022220125 0.13015625 -0.1388302 -0.025353858
000060 7d fa 74 3d 2e 83 42 ba 1c fa 56 3b 29 92 be bd
       0.059809197 -0.000742006 0.0032802885 -0.093052216
000070 f8 f0 eb bd 72 ac fc 3d 79 29 41 3e a1 e1 0d 3e
       -0.115205705 0.12337579 0.18863477 0.13855602
000080 db 64 22 bc f5 93 0a be 33 d1 6d 3e 92 40 02 3f
       -0.009911741 -0.13533004 0.23224334 0.50879776
000090 8f a2 7d bd 3b e7 9d 3b 03 46 ec bc e1 6d c4 bd
       -0.061922606 0.0048188246 -0.028841978 -0.0959127
0000a0 6f 20 e9 3d d2 3d 47 bd 10 c3 e2 3d 32 f5 ae 3d
       0.11383139 -0.04864294 0.110723615 0.08542861
0000b0 bf 54 c9 3d 5e c0 bb bc 29 b6 37 3d b4 e0 7b 3d
       0.09830617 -0.022918876 0.044851456 0.06149359
0000c0 8b bd 04 3e 16 5f 3c 3d c0 2d b9 3b cc 29 3d bd
       0.1296293 0.04598912 0.005651206 -0.04618244
0000d0 d8 46 36 3e 9f e8 a3 3d 4a c2 5e bc 0f b2 98 3c
       0.17800462 0.08003353 -0.013596127 0.018639592
0000e0 71 8e d6 3d d5 7d ed bd de 26 2a 3d 4b e2 07 be
       0.10476387 -0.11596266 0.041540973 -0.13269918
0000f0 da 20 9e bd 2e 39 9e 3c e7 80 5f be 8d 8e b0 3d
       -0.0772111 0.019314375 -0.21826516 0.086209394
000100 79 42 66 bd ff 08 be bc be ab 44 bd 1a 16 30 bd
       -0.056215737 -0.023197649 -0.04801535 -0.042989828
000110 98 38 48 3e 24 d8 c0 bc c9 92 a3 3e 8b f8 bb 3c
       0.19552839 -0.023540564 0.31947926 0.022945663
000120 69 4f 48 bb 5c 99 98 3d 71 b7 58 3d 56 a7 1f bd
       -0.003056491 0.07451126 0.05290932 -0.038977943
000130 64 02 61 3d 5f f6 7a 3c 6b 65 eb 3d 08 39 b9 bd
       0.05493392 0.0153175285 0.11493953 -0.09044081
000140 ec c5 69 3d c4 c9 d0 3d 42 c4 95 3c 58 64 b1 bd
       0.05707352 0.10194734 0.01828206 -0.08661717
000150 69 fb c9 3c 5a 97 83 3e 1e c2 95 bd be c8 62 3e
       0.024656015 0.2570141 -0.073124155 0.2214689
000160 63 f1 f0 b9 32 0b 54 3c db 50 03 be 12 15 fb bd
       -0.00045956214 0.012942122 -0.12823813 -0.12259878
000170 6b 64 a2 bd 60 86 eb 3c d6 71 2a bd 8b b5 df bd
       -0.079293095 0.028750598 -0.04161247 -0.109232984
000180 9a 0f a3 3d 0b 01 ca bc 7a bc b6 3c 64 50 11 3d
       0.0796196 -0.0246587 0.02230667 0.035477057
000190 c6 67 97 bc 87 10 3f bc f4 87 c1 3d 7d 3a 20 be
       -0.0184821 -0.011661655 0.09449759 -0.15647312
0001a0 c3 91 a6 be 8b 43 1c bc f4 ec e0 3d c1 97 84 bd
       -0.32533082 -0.009537588 0.10982695 -0.06474257
0001b0 f0 99 75 bc d3 f7 d8 bb 3e cf 2d be db 2d 99 3d
       -0.014990315 -0.00662134 -0.16973588 0.07479449
0001c0 5e f3 c5 3d 89 0d 1a be 71 7b 21 3d 04 07 3e bd
       0.09665559 -0.15044226 0.039424364 -0.04639341
0001d0 0f c9 ae bd 19 95 99 bd 47 63 46 3d 1c 3d 2b 3e
       -0.08534443 -0.07499141 0.048434522 0.1672253
0001e0 36 5f a8 bd 53 5a e4 bd 23 61 a9 bc 0f 2c fb 3d
       -0.08221285 -0.111500405 -0.020676201 0.12264263
0001f0 a0 0b 23 3e ff 3e f9 3d 79 28 6c bb 37 40 6e bc
       0.15922403 0.12170219 -0.0036034866 -0.014541677
000200 0f 7e 1d bd 25 d7 7d 3d 99 c1 06 be 0b e1 40 bc
       -0.038450297 0.061972756 -0.13159789 -0.011772404
000210 4b 48 cb 3d 1e 38 c9 3c c5 01 13 3e 16 44 c0 3d
       0.09925898 0.024562892 0.14356144 0.09387986
000220 58 b8 08 bd 0c 67 88 3d 63 6f 27 3d 5a 90 20 3e
       -0.03337893 0.0666028 0.04087771 0.15680066
000230 c2 11 5f be c1 3c 13 be 8f 0b 91 3d 3d 38 3d 3d
       -0.21784118 -0.14378645 0.07082283 0.04619621
000240 af ae d9 bc 1a 76 f8 bd 76 1d 08 be d3 57 99 3d
       -0.026572553 -0.12131901 -0.13292488 0.07487454
000250 cb e6 2a 3e e0 ba 13 be d4 a0 61 3d 17 45 d4 bd
       0.16689603 -0.14426756 0.05508502 -0.1036474
000260 3f f6 61 3d 89 38 1a be 69 ef 10 be f5 21 d7 3d
       0.05516648 -0.15060629 -0.14153828 0.10504524
000270 2f fc 30 3d ba b1 3b 3d 80 83 c0 3c c4 40 59 bd
       0.04320925 0.04582379 0.023500204 -0.05304028
000280 f2 5c 5c be 8f d8 8c bd a3 80 aa 3c c2 35 e5 3d
       -0.21519831 -0.06877243 0.020813292 0.11191894
000290 58 5d 21 3e 89 db 06 be 93 b4 82 3d 48 fa b7 bd
       0.15758264 -0.13169684 0.06382098 -0.08983284
0002a0 c7 6c 9c bd 0b 0e 3b 3d dd 85 8c bd 3d 49 e0 bc
       -0.07637935 0.04566769 -0.0686147 -0.027378673
0002b0 20 d1 0d 3e 76 ff 8c bd 7c 1f 9e 3d 44 9c 29 be
       0.13849306 -0.06884663 0.07720849 -0.16563517
0002c0 19 e5 5f bd 79 69 5a be db a2 7e 3d 98 ca 96 bd
       -0.054661844 -0.21329297 0.06216703 -0.073628604
0002d0 9d 2c 34 be 83 7f ba bd 6d ad 78 bd 14 08 d7 3c
       -0.17595144 -0.09106352 -0.060712267 0.02624897
0002e0 0c 71 4a bd f0 bd d7 bd 02 79 22 3b b4 ca 54 3d
       -0.049424216 -0.105342746 0.0024791365 0.051951125
0002f0 89 f8 5a 3e 87 53 c6 bd 8d df f7 bd ba e2 c8 bd
       0.21383871 -0.096839 -0.12103186 -0.0980887
000300 2c f8 2d 3e c0 66 b2 bb e8 20 20 bc ff 96 26 3b
       0.16989201 -0.0054443777 -0.00977347 0.002541959
000310 3c f6 53 bc 9b 33 54 3b 97 b9 18 3e c7 83 ee 3d
       -0.012937125 0.0032379392 0.14914547 0.11646228
000320 b8 48 d9 3d 32 99 0b 3e b9 35 29 be 34 e8 3e bc
       0.10609573 0.13632658 -0.165244 -0.011652041
000330 a3 96 98 3d fc 84 eb 3c df 9e 91 bd 66 76 2e 3d
       0.07450607 0.028749935 -0.071103804 0.042593382
000340 c3 51 96 3d 49 9c b1 bd 3d ab b6 be 41 25 97 3d
       0.073398136 -0.08672387 -0.3567752 0.073801525
000350 f6 53 8a 3d eb 8d 6c 3d 50 2c e2 bc b9 cf c4 bd
       0.067542955 0.05775253 -0.02760902 -0.096099325
000360 bc 07 d6 3d 60 78 ad bd d4 1d 58 bd 86 6e bf 3c
       0.10450694 -0.08470225 -0.05276282 0.023368131
000370 43 db fa bc 72 77 01 3e 51 93 9f bd 05 9c 8f 3c
       -0.03062213 0.12643221 -0.0779177 0.01753045
000380 62 a2 4d bc ef cf 08 3e ba 91 ec 3d d3 d0 ff bd
       -0.012550922 0.1336057 0.11551233 -0.12491002
000390 18 83 d1 bc fe f6 a4 bd ad a0 32 bd ea 9f 54 3b
       -0.025575206 -0.080549225 -0.043610264 0.003244395
0003a0 06 0f 14 3e 56 83 d3 bd 0e 57 f3 3d d1 8c 7f b9
       0.14458856 -0.10327785 0.11881839 -0.00024371153
0003b0 a6 8c 36 3e 44 03 0f 3d 03 70 e6 3d 81 5e fa 3c
       0.1782709 0.034915224 0.11251833 0.030562641
0003c0 f9 06 ec 3d 6c 6a 09 be 47 1b f2 3b cb 6e 66 bb
       0.115247674 -0.13419503 0.0073885056 -0.0035161253
0003d0 68 90 8b bd 90 4d 35 3a ea 64 73 3d 82 ad 10 be
       -0.06814653 0.000691616 0.05942241 -0.14128688
0003e0 d0 ca 16 be e3 67 7a 3d e4 57 66 3d 3c fb 9a 3d
       -0.14725804 0.06113423 0.056236163 0.075674504
0003f0 d3 c9 cb 3d ca 10 45 bb 27 33 fe bc 17 e3 7b 3b
       0.09950604 -0.0030069822 -0.03103025 0.0038434917

bias f4 [128]
000000 9e 88 c7 3d aa 00 b4 3d 5c 85 fb bd 47 8b 35 bd
       0.097428545 0.08789189 -0.12281296 -0.04432228
000010 05 ba 99 bb c8 f6 e7 bc ab d4 12 be 11 62 e9 3d
       -0.0046913647 -0.028315917 -0.14338939 0.11395658
000020 35 bd 5b be be 94 d4 bb 00 f0 3c 3d d8 6b f3 3d
       -0.21458896 -0.006487458 0.04612732 0.11885804
000030 06 45 db 3d a1 1e 82 3d c8 6a 45 3e 91 42 f7 3d
       0.107065246 0.06353498 0.19279015 0.120732434
000040 53 19 36 3e c5 27 f5 3d 95 cc a3 bc 57 c8 06 3d
       0.17783098 0.11970476 -0.019995013 0.032905903
000050 56 c1 5c be 0f cd 1d 3e 3b 6f da 3d 62 c0 ff bc
       -0.21558127 0.15410255 0.10665747 -0.031219665
000060 4a 36 93 3d ca 84 23 3d 74 36 2b 3d 2f 6b 47 be
       0.07188089 0.03992156 0.041799977 -0.19474481
000070 20 c5 13 bd 44 4f 01 3e 1f 8e d2 bd 8c bb ff 3c
       -0.036076665 0.12627894 -0.10281014 0.031217359
000080 20 97 0c 3d 06 42 06 be 9f ed 59 3e 7b 9a 1c 3e
       0.03432381 -0.13111123 0.21282052 0.15293305
000090 90 b6 36 3d 3c c1 b9 3d 56 96 b2 bd a2 1d 5e bd
       0.0446077 0.0907006 -0.087200806 -0.05422748
0000a0 41 c5 41 3e 3a ea 05 be 59 30 e5 bd a0 87 48 3d
       0.18922903 -0.13077632 -0.11190862 0.048957467
0000b0 42 5c 08 be 17 3e ef 3d 9f 4a ca bd e3 bf ef 3d
       -0.13316444 0.116817646 -0.09877514 0.11706521
0000c0 92 f6 6f 3c a2 ad 26 be 9a 1e d2 3d 96 8a cd bd
       0.014646189 -0.16277173 0.10259743 -0.10036199
0000d0 40 34 40 3e f1 70 ec bc 8d 03 b6 bc b4 19 3d 3e
       0.18769932 -0.028862448 -0.02221849 0.18466836
0000e0 8e e8 ea 3d 9a 43 6f be 12 e9 4d bd f7 8a 43 3e
       0.114701375 -0.23365632 -0.0502711 0.1909598
0000f0 0f 5e 2d bc 72 81 be 3d c2 0b f2 bc 96 7f bb bc
       -0.010581507 0.093020335 -0.029546622 -0.022887986
000100 81 10 af 3c e3 29 1e 3c 6d 28 62 3d 1e 0f f7 bd
       0.021370174 0.009653541 0.055214334 -0.1206343
000110 9b ab 96 bd 75 af 5c be a4 fa fd bd 27 51 5f bd
       -0.0735695 -0.21551307 -0.124013215 -0.054520752
000120 a1 ba 25 bc 2e 18 13 3e 8c b7 65 bc 02 01 e6 bd
       -0.010115297 0.14364693 -0.014020812 -0.11230661
000130 a7 9c cb 3c b7 3f ca 3d 4f 9d 83 3c 51 d7 8a 3d
       0.024854971 0.09875434 0.016066222 0.067793496
000140 36 71 d0 bc 1b 31 0a be f1 a6 77 3c e8 b2 81 3d
       -0.025444608 -0.13495295 0.0151154855 0.06332952
000150 d4 43 29 be 9f 3e 7a bc 8e 79 48 bc 4f e4 ed 3d
       -0.1652978 -0.015273719 -0.012236012 0.11615812
000160 54 17 61 3d 82 e5 e5 3d 53 8e a2 3d db 7c 24 bd
       0.054953888 0.11225416 0.079373024 -0.040158134
000170 45 15 1f be d7 a5 1b 3e 1b 79 88 3d 99 93 59 3d
       -0.15535457 0.15199982 0.06663724 0.053119276
000180 55 c4 42 3d 95 09 87 bd be a2 9a bd 89 58 c7 bd
       0.047550518 -0.065936245 -0.07550572 -0.097336836
000190 24 38 16 3d 10 5e 63 3d a2 d9 8b 3c 6e 59 18 be
       0.036674634 0.055509627 0.017071549 -0.14877865
0001a0 f2 cc db bd b3 95 ca bd 9a 95 87 3d 06 e6 32 3e
       -0.107324496 -0.09891834 0.06620331 0.1747056
0001b0 39 08 30 be 2c a6 26 3e a3 d2 a2 bd dd a9 22 bd
       -0.17190637 0.16274327 -0.07950332 -0.039712775
0001c0 c1 99 86 bd ed 1f a7 bc 2e 40 57 3d f1 18 2a be
       -0.06572295 -0.020400966 0.05255144 -0.16611077
0001d0 a5 95 d3 3c 57 49 0a 3e 6a 8e d1 bd f3 97 46 be
       0.025828192 0.1350454 -0.102322415 -0.19393902
0001e0 bc c1 9f bd 0d ea 21 3e 31 c9 e0 3d f4 e6 4c 3e
       -0.07800624 0.1581194 0.10975874 0.20009977
0001f0 c6 f1 ac bc ac 26 fa bc d9 11 7a 3d 9e 34 74 bd
       -0.02111138 -0.030536018 0.061052177 -0.059620492

weight f4 [17, 128]
000000 77 2d a0 bd a5 c7 c8 3d a6 18 b5 be 96 94 42 3c
       -0.07821172 0.09803704 -0.35370368 0.011876246
000010 00 5e 15 bd ba 5e 35 bc 53 17 bf 3e dd c1 1b 3d
       -0.0364666 -0.011069948 0.37322482 0.03802668
000020 fe 11 49 be e3 3f 66 bd 12 fa ae be f0 38 9c 3c
       -0.1963577 -0.05621327 -0.34175164 0.019070119
000030 00 66 d0 3b f9 8f de 3c 6e 83 d6 bd 66 88 ad 3e
       0.0063598156 0.02716826 -0.10474287 0.33893126
000040 b0 d7 83 3a 64 46 10 3e b3 ba 3e 3e 6a b7 97 3c
       0.0010058787 0.14089352 0.18625908 0.018520076
000050 87 2b c1 be 2c 58 31 3e 27 09 92 bb a4 de 89 bd
       -0.3772852 0.17318791 -0.0044566575 -0.067319185
000060 2c 3a 60 bd da ae c0 bd 0b 87 4f bc e7 b6 24 3c
       -0.054742977 -0.0940835 -0.012666474 0.010053373
000070 0e d5 4f 3b b7 f0 3e 3d ec 53 ed bc f6 28 6e 3c
       0.0031712684 0.046616282 -0.028970681 0.014536133
000080 6a a9 92 3e f7 20 00 3f a6 8a 16 3d 4e 37 57 3c
       0.28644878 0.500503 0.03675332 0.013135744
000090 af 2b 94 be 2d e4 14 3c 10 a1 6d 3e 97 38 bf bd
       -0.28939578 0.0090876045 0.23205972 -0.093369655
0000a0 c5 da ca bd 98 2b 71 bd 4a 54 f1 bd 14 61 3b 3d
       -0.09905008 -0.058879465 -0.11783655 0.045746878
0000b0 09 09 ab be 7d a1 3f bb 02 35 84 be 52 f9 0f 3d
       -0.3340533 -0.0029240542 -0.25821692 0.03514988
0000c0 fb 0e 80 bd ba 2c 3d be 20 9a 28 3d b2 32 27 3d
       -0.06252857 -0.18474093 0.04116261 0.04081983
0000d0 95 ef bd 3c 8e 3f 2f 3e c3 78 22 3c d1 1d 05 be
       0.02318553 0.17114088 0.009916487 -0.12999655
0000e0 c6 34 c6 bd 91 c6 bf 3b 29 e3 ca bd 2e c6 59 be
       -0.096780345 0.0058525284 -0.099066086 -0.21267006
0000f0 0d 04 bf ba 21 2a 68 bd 36 70 6d be fc 88 01 3c
       -0.0014573351 -0.056680802 -0.23187336 0.007906195
000100 7f 3f 3d 3c db 9a b7 3e e1 39 e6 3b 12 a8 b8 3d
       0.011550783 0.35860333 0.0070259427 0.09016432
000110 03 41 f4 bc 1f 6f 76 bd 3a 2b e8 be a1 88 99 bc
       -0.029816156 -0.060164567 -0.4534548 -0.018741908
000120 58 65 ba bc 77 3a af be fb d5 82 bc 40 40 11 be
       -0.022753403 -0.34224293 -0.015971174 -0.14184666
000130 7e 09 96 bd b8 88 56 3d d8 38 5c be 21 74 8f bd
       -0.07326029 0.05237648 -0.21506059 -0.07004572
000140 e8 23 e0 bc ae d6 21 3c 90 f9 23 3e 04 dc 82 bb
       -0.027360871 0.009877844 0.1601317 -0.003993513
000150 26 13 1a bf df 78 66 3a 3a 52 e0 bc 9f 8e 0b bd
       -0.6018547 0.0008791815 -0.027382959 -0.03407156
000160 4d 68 d0 be 22 dc 2e 3e c9 83 08 be a0 8e d0 bc
       -0.40704575 0.17076162 -0.13331522 -0.025458634
000170 d2 52 7e bd ec 79 d9 3d b2 b1 86 3e 49 3b ce 3c
       -0.062090702 0.10618958 0.26307446 0.025174754
000180 16 ad 8b bd c3 b2 04 3c 92 d5 32 bd 9d 11 2d bb
       -0.06820123 0.008099261 -0.043660708 -0.0026408203
000190 47 d2 10 3e 61 48 80 bd 03 e9 ae bc 84 f6 0c be
       0.14142714 -0.06263805 -0.021351343 -0.13765913
0001a0 1c ce f4 bd a5 61 aa bd 3f 54 43 3d ba 7a 76 bd
       -0.11953375 -0.083194055 0.047687765 -0.060175635
0001b0 eb c1 39 bd 5a f5 8c 3d 7a 0b 14 3e 27 14 3c bd
       -0.04535095 0.068827346 0.14457503 -0.045917656
0001c0 eb 72 2f 3e e9 df 20 be 04 d0 e8 bd e0 d8 85 3e
       0.17133681 -0.15710415 -0.11367801 0.26142025
0001d0 ae 43 33 bd 30 05 7f 3c 39 93 37 bd 63 44 e7 3d
       -0.043765716 0.015565202 -0.044818137 0.112923406
0001e0 c6 dd 0d be bb aa 73 be e8 88 93 3e 5c ef 91 bd
       -0.13854131 -0.23795597 0.2881539 -0.07125732
0001f0 5e 21 91 3e 76 c7 dd 3c e7 f2 df bd 37 60 4b 3e
       0.2834577 0.02707265 -0.10935002 0.19860922
000200 81 0d fe bd bd 97 af bd 3e 89 e8 3d 3e 4f e8 bc
       -0.124049194 -0.08573864 0.11354302 -0.028358098
000210 77 a8 6e 3c 0e 2d ce bd d4 c2 93 bd 0f 29 e2 bd
       0.014566532 -0.10067187 -0.07214895 -0.110429876
000220 b1 44 26 3e 4e 06 8f 3d ae b7 0b 3e dc d7 1c bd
       0.16237141 0.069836244 0.13644287 -0.038291797
000230 5a c7 46 3d 17 32 c0 bc c5 1a ab bd af 26 ce 3b
       0.04852996 -0.023461385 -0.08354715 0.0062912325
000240 f4 de 50 bc 26 c8 3c bc 03 04 99 bd c1 f3 7d 3d
       -0.012748469 -0.0115223285 -0.07471468 0.06200004
000250 f3 0d 84 3e f3 19 b2 bd 1e bf 30 be 29 68 6b bd
       0.25791892 -0.08696356 -0.17260405 -0.05747238
000260 54 c6 44 3d 3a 3c e2 3b 32 56 2b 3d 11 be 40 bd
       0.048040703 0.006904152 0.04183025 -0.04705626
000270 e3 ee 77 3d fe 16 58 bd a2 c3 0a 3e cb 37 61 bd
       0.060530555 -0.052756302 0.1355119 -0.05498485
000280 e1 8c fa bd b9 52 91 bd bf dc 9b 3d 95 c8 37 bd
       -0.12233902 -0.07095856 0.07610463 -0.044869024
000290 df 5e 5b 3e 37 6f 25 bd a1 08 ad bc 40 c3 97 bc
       0.21422909 -0.040389266 -0.021122279 -0.01852572
0002a0 72 63 03 3b 04 55 ab bd 3b b8 9d 3c 8b f4 03 3d
       0.0020048288 -0.08365825 0.019252887 0.032215636
0002b0 ac 43 34 3e 3e 5e 3c bd 50 5c 36 3d 51 33 9a bd
       0.1760394 -0.045988314 0.04452163 -0.07529319
0002c0 4e 24 47 bb 08 93 c1 3d 01 06 b9 bd 47 bb f8 3c
       -0.003038663 0.09451872 -0.09034348 0.030362738
0002d0 e1 19 31 3c 60 b6 ea bc 9d 64 a1 bd d2 c0 c0 bc
       0.010809393 -0.028651416 -0.078805186 -0.023529444
0002e0 ce 99 bf ba f4 2e a4 be bf ae d3 3c b9 37 8f 3d
       -0.0014617981 -0.32067072 0.025840161 0.0699305
0002f0 84 30 c1 bc b8 76 c4 bc da 15 23 3e 46 51 ba 3d
       -0.023582704 -0.02398239 0.15926304 0.09097533
000300 3d 2f 08 bd bc 5f 33 bd f5 7a a6 3d cb 12 43 bc
       -0.033248175 -0.04379247 0.08128921 -0.011906336
000310 13 3f 93 bd bb 5a 1c 3e d9 eb 1a 3e 1c 30 9f 3d
       -0.07189765 0.15268986 0.15129031 0.07772848
000320 2e 59 6b bd fc 58 45 3e 13 86 07 3e 5b e2 32 3d
       -0.057458095 0.19272226 0.13234739 0.0436729
000330 bc 99 c0 ba 57 21 11 bd 6a 0d 83 3d 2e 69 d4 bd
       -0.0014694254 -0.035432186 0.06399043 -0.10371624
000340 81 31 c2 3c 8d 0d 52 bd 3a 86 2b bd 1a 5f 27 3e
       0.023705246 -0.051282454 -0.041876055 0.16344872
000350 06 e0 e8 3e 1a 71 0d 3e 29 2c 58 bd b7 e0 fb bd
       0.45483416 0.13812676 -0.05277649 -0.1229872
000360 9d 16 59 3e 2b 80 87 3d 92 f4 4c bd d5 34 7e 3d
       0.21200033 0.06616243 -0.050037928 0.062062103
000370 f3 01 0e 3d 6f 07 8b bd c6 ae 07 3e e4 f2 06 3d
       0.034669828 -0.06788527 0.13250265 0.032946482
000380 79 ba ac 3d 68 a3 83 bc ba 69 62 3d ee 9f 0c 3d
       0.08434004 -0.01606913 0.05527661 0.03433221
000390 b3 28 8e 3d bf a2 03 bd 8d 1a 8b bc 3b c1 5e be
       0.069413565 -0.03213763 -0.016980434 -0.21753399
0003a0 ba 87 83 3d 5d 65 b3 3c dd 5d d0 bd db 78 d1 bc
       0.06422372 0.02189892 -0.10174153 -0.025570324
0003b0 e7 39 a8 3d a7 69 c2 bd ab bd 58 bc 58 1b 48 3d
       0.08214169 -0.09492808 -0.013228814 0.048854202
0003c0 4e 53 b9 3b 00 39 01 bc a8 d5 df bd 7b f4 aa 3d
       0.0056556826 -0.007887125 -0.109294236 0.08347412
0003d0 ca da a0 3d f3 42 61 3d 2e 91 18 bd 55 75 46 3d
       0.07854231 0.05499549 -0.03724783 0.04845174
0003e0 79 8a 20 3b 82 33 15 3c be 65 1f bc e2 04 1f bd
       0.0024496599 0.009106519 -0.009728847 -0.038823016
0003f0 cc 2d a7 be b6 1b d6 3c 99 01 b3 bd f4 f2 58 3d
       -0.32652128 0.02613626 -0.08740539 0.052966073

bias f4 [17]
000000 9a cb 8e 3d 4e 62 7e bc 95 45 16 3d 9c 8c 83 bc
       0.06972428 -0.015526367 0.036687452 -0.016058259
000010 6b fc 1e 3d bb 01 6e bd 78 db 03 3e 9f 7a 25 3e
       0.038814943 -0.05810712 0.1287669 0.16160057
000020 aa b7 1f 3c 5d 68 1c 3d e0 38 aa 3c 50 39 0e 3d
       0.009748379 0.038185466 0.020779073 0.034722626
000030 37 84 0e 3d 06 3a a4 bd 33 a7 8a b9 91 68 94 3b
       0.03479406 -0.080188796 -0.00026445984 0.004529067
000040 8b 9a f2 3b
       0.007403677

weight f4 [128, 1]
000000 c3 d7 5c 3d 2e d0 84 bc 04 e9 4b bf 8e ae 56 bf
       0.053916704 -0.016212549 -0.7965243 -0.838601
000010 56 89 a5 bd 72 87 71 bf 36 d1 0e bf 27 82 e3 be
       -0.080828354 -0.943473 -0.5578798 -0.44435236
000020 7f 41 67 3e ff 36 29 be 83 b5 7a 3b 06 1d 73 3e
       0.22583579 -0.16524886 0.0038255162 0.2374154
000030 cc 18 80 be a0 36 38 be f8 84 44 3e 84 7e 9c 3e
       -0.2501892 -0.17989588 0.19191349 0.30565274
000040 0a 8d b2 be 84 e2 1d 3f 88 32 8a 3e 18 fb 7c bf
       -0.3487323 0.6167376 0.26991677 -0.9882064
000050 15 70 98 3d 3a 15 3e bf 40 bf 2a 3f c1 1c 2b 3f
       0.07443253 -0.7425114 0.66698074 0.6684075
000060 08 83 71 bf 22 b4 e2 3d 4e e4 22 bf a2 12 12 bf
       -0.9434056 0.11069514 -0.63629615 -0.5705968
000070 06 66 60 bf 26 70 c2 3e a8 00 98 3e 10 04 4a be
       -0.87655675 0.37976187 0.29688 -0.19728112
000080 d6 7a 0a bf ad 5e fc 3e 6f bc 71 3f 9b c2 16 bf
       -0.5409368 0.49290982 0.9442815 -0.58890694
000090 3e 61 42 3f 2a 78 54 bf 54 19 c1 be 5f 38 0d 3f
       0.7592963 -0.82995856 -0.37714636 0.5516414
0000a0 8b bc a8 3e 30 2e 77 be 80 52 30 be 72 bd d8 3e
       0.32956347 -0.24138713 -0.17218971 0.42332035
0000b0 64 9e 34 3f 0c dd 7d bf 3c da 4c bf 4c a1 4c be
       0.70554185 -0.99165416 -0.800205 -0.19983405
0000c0 ce 9c d6 3d 48 d1 3e bf f0 f7 64 be dc 67 e9 be
       0.10479127 -0.7453809 -0.22360206 -0.4558705
0000d0 13 f3 e8 3d c0 50 2a 3f 60 06 2a bd 88 ae 04 be
       0.11374488 0.66529465 -0.041509986 -0.12957203
0000e0 44 cf 9d 3d 0d 7c 50 be 2f b3 d7 3e 80 d1 ee bc
       0.077055484 -0.20359822 0.42128894 -0.029152632
0000f0 b8 85 66 3e 16 4d 1c bf 14 96 ac be d8 79 d2 3e
       0.22511947 -0.61055124 -0.3370825 0.41108584
000100 6a c9 40 bf 00 a7 62 bd b3 ba 4e 3f 52 16 c1 3e
       -0.75307333 -0.055335045 0.8075363 0.37712342
000110 e0 55 8a 3e d7 f1 58 bf 24 16 76 3f 59 13 57 3f
       0.27018642 -0.8474402 0.96127534 0.840139
000120 70 51 9b be f0 ed bf be a8 b6 9b be 63 a0 0a bf
       -0.3033557 -0.3748622 -0.30412793 -0.5415098
000130 77 de 05 3c e8 41 50 3e 40 74 c9 bd 8c 95 6d 3f
       0.0081707155 0.20337641 -0.09836626 0.92806315
000140 33 5e 19 3e e0 e8 6f 3e 46 b6 71 bf b6 1b 31 3f
       0.1497734 0.23428679 -0.9441875 0.6918291
000150 0c 86 ce be 76 ea 76 bf 40 6a aa be 5e 37 37 bf
       -0.40336645 -0.9645151 -0.33284187 -0.7156886
000160 b3 ce db 3e ca 5f e1 3e e8 22 4a 3f 9e 7e 61 bf
       0.42931136 0.44018394 0.7895951 -0.8808383
000170 b2 bf 50 bf 34 19 1f 3f 46 22 1e bf d2 d3 a2 3e
       -0.81542504 0.6214783 -0.6177105 0.3180223
000180 9b d3 e7 be e0 31 f0 bd d3 9f 85 3e 00 5e 07 be
       -0.4527863 -0.11728263 0.260985 -0.13219452
000190 d8 bf 30 be bd 7e 0d 3d 30 a3 a0 bd 86 1c e1 3e
       -0.17260683 0.034544695 -0.078436255 0.43967074
0001a0 48 cd 34 3f 42 25 36 bf 78 11 0a bf 34 8f 61 bf
       0.70625734 -0.711506 -0.53932905 -0.88109136
0001b0 91 26 f3 bd 25 58 92 be a8 88 53 bf 9a b6 63 be
       -0.1187259 -0.28582874 -0.82630396 -0.22237626
0001c0 5b 08 50 3f 70 96 b8 be cf fb 38 3e d2 6a 30 3f
       0.8126275 -0.36052275 0.18064807 0.68912995
0001d0 6b 2d 8a bc f3 69 12 3e cf 23 27 3f e8 15 82 3e
       -0.01686736 0.14298229 0.65289015 0.25407338
0001e0 13 d3 c1 3e f2 ab 14 bf 35 dc 5e 3f 70 f5 d9 be
       0.3785635 -0.5807487 0.8705476 -0.42570066
0001f0 ac 41 b9 3e 4b 49 2d 3f 44 86 8d be 90 8a 9d 3d
       0.36182916 0.6768996 -0.276415 0.07692444

bias f4 [128]
000000 f5 5e ee bd fe 7a cf 3e 1a 01 7b 3f 64 3d 16 3f
       -0.11639205 0.40523523 0.98048556 0.58687425
000010 4d 44 2c 3e 08 fe 75 3e b8 bb f8 3e c3 36 0c 3f
       0.1682293 0.24022686 0.48580718 0.5477106
000020 d4 2d aa be 59 b7 86 3e 88 a2 09 bc 8b d2 97 be
       -0.3323809 0.26311758 -0.008400567 -0.2965282
000030 06 6c 11 bf d4 33 24 bf 6c 7c d5 be e8 f4 4f bf
       -0.56805456 -0.64141583 -0.4169649 -0.8123307
000040 be ae 04 3f 35 d8 2a 3f 30 0c 37 3f 7c cd 0d 3f
       0.51829135 0.66736156 0.7150297 0.5539167
000050 b2 3b 06 be 80 6a 0f 3e a6 93 9d be 44 9d d5 3e
       -0.1310871 0.1400547 -0.3077671 0.41721547
000060 d2 ea 58 3f e0 02 89 3e b6 f3 7d bf b0 31 59 3f
       0.8473331 0.26760006 -0.992 0.8484144
000070 de c4 07 3f f4 35 af 3e f6 6c 2a bf 70 1b f7 3d
       0.5303477 0.3422085 -0.6657251 0.1206578
000080 00 2d 66 bf 0b 67 44 3f 88 39 04 bf d4 97 50 3f
       -0.89912415 0.7671973 -0.51650286 0.8148167
000090 24 cb 56 bf 5c 1c 06 3f dc 1e a1 be ce a1 bd 3e
       -0.8390372 0.5238702 -0.31468856 0.3703751
0000a0 42 20 77 bb 2a 60 1f bf cc 1d cd be a2 19 71 3d
       -0.0037708436 -0.6225611 -0.40061796 0.058862336
0000b0 a2 50 0c bf 90 2d 56 bf a0 31 15 bd ad f7 45 3f
       -0.54810536 -0.8366327 -0.03642428 0.7733105
0000c0 30 20 66 be e8 19 f1 be 00 0d 32 be 0e 78 4e bf
       -0.22473216 -0.47090077 -0.17387772 -0.8065194
0000d0 d6 ab 61 3f b0 7a 36 3f 84 b9 33 bf a9 90 0d 3e
       0.88152826 0.71280956 -0.7020495 0.13824715
0000e0 b7 5d 2c be 2f 11 1f 3f 62 2a 06 bf 48 9b 62 be
       -0.16832624 0.62135595 -0.5240842 -0.22129548
0000f0 46 28 42 bf ac 54 10 3f de 31 00 3f 85 d9 d4 3d
       -0.758427 0.563792 0.5007609 0.10393051
000100 40 e8 0a bd b0 f5 27 be 85 f0 0c 3f a6 ae b4 be
       -0.033912897 -0.16402316 0.55054504 -0.35289496
000110 e4 2a 34 bf 4e a6 85 3f 1e 1c 01 3f 73 24 48 3e
       -0.70377946 1.0441377 0.5043353 0.19545154
000120 a0 45 11 bd 40 1c 19 3e 20 b7 30 3e 9e 57 2a 3f
       -0.03546679 0.14952183 0.17257357 0.66539943
000130 f5 7a 09 3e e8 e8 1f bf 30 c5 f5 be 72 86 2c 3f
       0.1342581 -0.6246476 -0.48002005 0.6739265
000140 ee 39 23 be 5c 62 17 bf 58 f1 28 be d5 f2 5c bf
       -0.15940067 -0.5913446 -0.16498315 -0.8630803
000150 70 a1 9a 3e a4 fa 83 be 5c a9 9c be d0 6d 2a bf
       0.30201292 -0.2577716 -0.3059796 -0.6657381
000160 cc 19 76 be f8 c7 32 bd 82 0f 2f be c0 5a a3 3e
       -0.24033278 -0.043647736 -0.1709576 0.31905174
000170 9c 83 80 3f 44 01 2a bf d0 56 91 3d ba 7e c5 bd
       1.0040164 -0.6640818 0.07096636 -0.09643312
000180 86 5d 20 3f 20 db 15 bd 2d 9b a0 3e 44 77 84 be
       0.62642705 -0.036585927 0.3136839 -0.25872242
000190 60 7f 1f bf 49 1c 9e bd f8 19 f6 be 19 97 92 3e
       -0.62303734 -0.07720239 -0.48066688 0.28630903
0001a0 c3 8c 61 bf 30 d4 f5 3d 43 a7 29 3f c8 1d 21 be
       -0.8810541 0.12003362 0.66270846 -0.15734017
0001b0 9a 4a 17 3e 7e 86 ec 3e 7a f7 39 3f b2 86 4b 3f
       0.14774552 0.4619636 0.72643244 0.79502404
0001c0 c1 d5 65 bf 6c 8f ec be 8b 82 a7 3e 69 ec 23 3f
       -0.8977929 -0.46203172 0.32716784 0.6403261
0001d0 89 a5 c5 3e 64 c2 99 3e 02 68 38 bf 48 d4 2e bf
       0.38602856 0.3003112 -0.72033703 -0.68292665
0001e0 f1 b2 1e 3f 50 e0 18 bf ff e3 bd bd 6c 0d ad be
       0.6199179 -0.59717274 -0.092720024 -0.33799303
0001f0 3e e0 50 bf 38 eb 4e 3e e0 a5 e9 be 64 19 de be
       -0.81592166 0.20206916 -0.45634365 -0.43378747

weight f4 [1, 128]
000000 0e bd 1c 3b 09 1e 18 3d a4 fb c2 3f 1f 04 fa bb
       0.0023916396 0.03713802 1.5233045 -0.007629886
000010 00 61 97 3d e8 15 7b 3d 51 fb a7 bc 8a 2b b5 3f
       0.07391548 0.06130019 -0.02050558 1.4153912
000020 56 f8 65 be 2c 56 c9 3b 5a 86 f8 b8 eb 32 48 3f
       -0.22458014 0.0061443057 -0.000118505865 0.78202695
000030 fb ad 9a ba d9 3a 8b 3d 4a 5a 28 3d 68 b6 8e bd
       -0.0011801118 0.06798334 0.04110173 -0.06968385
000040 8e 9b bf be 76 f8 3f bd e6 bc f8 bc 24 9d d1 bc
       -0.37423366 -0.04686781 -0.030363511 -0.025587626
000050 7b 01 94 3b e7 0e fb 3c eb 8b 5e bc c1 6f 39 bd
       0.004516778 0.030646754 -0.013583164 -0.045272592
000060 26 84 2f 3d 84 b9 65 bc ea 91 ff 3c 17 0f cf be
       0.042850636 -0.014021281 0.031197507 -0.404412
000070 78 6e 8e 3c 2e 9c 9b bd fe 28 83 bd e7 da f2 3c
       0.01738666 -0.07598148 -0.06404303 0.029645396
000080 1e 78 f0 3c b2 6f 8c bd e4 bb 96 bd b1 bc 06 bf
       0.029354151 -0.06857242 -0.07360056 -0.5263167
000090 20 ba 82 bd f5 45 53 3d 79 73 62 bd 7a 7f a9 bc
       -0.06383157 0.051580388 -0.055285905 -0.020690668
0000a0 b0 ca 49 3d d5 e6 2b bc bb e2 fa bc ce 4c 2a bd
       0.049265563 -0.010492046 -0.030625692 -0.041577153
0000b0 13 77 98 bd 17 5f 7b bd d4 36 de bb 6e 6f 4c 3d
       -0.074445866 -0.06136998 -0.0067814384 0.049910955
0000c0 57 36 46 bd 1e 93 47 bc 2b 0a 19 bd 4f 77 bc 3a
       -0.048391666 -0.012181072 -0.037363213 0.0014378818
0000d0 1f 18 b3 3c 66 28 ba 3c 32 90 91 3c 3c bd a8 be
       0.021862088 0.022724342 0.017768953 -0.32956874
0000e0 6d 4d 76 3a a1 11 ae 3d 14 98 3c 3f 3a 03 e7 3b
       0.00093956926 0.08499456 0.7366955 0.007049945
0000f0 a9 8a 80 bd c6 04 aa bd ee 6f fd be 14 ea 8f bd
       -0.06276447 -0.08301692 -0.49499458 -0.07027069
000100 46 a8 b0 3c 46 64 4f 3d 5f 0a 15 bc 2c f1 99 bb
       0.021564614 0.050632738 -0.009096711 -0.0046979394
000110 d9 0c 37 bd 1f d8 cd 3f 3c 03 8f bd 04 f2 3c 3d
       -0.044689987 1.608158 -0.06983039 0.04612924
000120 de fe 74 bc 5c fc 65 3c 7a 05 83 3c 40 57 a8 3f
       -0.014953343 0.014037218 0.015993822 1.3151627
000130 6b 81 bb bc 39 b8 9d 3d e4 52 56 3b 4e 81 72 3d
       -0.02288886 0.07701153 0.0032703215 0.059205346
000140 51 fa 29 bd 3c d6 80 bd cb a9 a5 bd 44 70 43 3f
       -0.041498486 -0.06290862 -0.08089026 0.7634318
000150 09 c5 be 3a 19 f4 04 3c 98 46 ed 3c 6d 52 95 3d
       0.0014554571 0.008114838 0.028964326 0.07291112
000160 b3 a0 a9 bd b1 63 24 3d 9a 2e 43 3d 36 d7 44 bd
       -0.08282604 0.040134136 0.047651865 -0.048056804
000170 ed ed bd 3f 14 df 93 bd 2e b8 78 3c 3a bf b4 bd
       1.4838234 -0.07220283 0.015180631 -0.08825536
000180 44 31 02 bf 22 b2 12 3d 38 7f 8d bb b7 83 4b 3d
       -0.50856423 0.035814412 -0.004318144 0.04968616
000190 58 52 ee 3c f3 36 2c bc 4f ec a5 bd 16 f5 a3 bd
       0.029091999 -0.010511148 -0.08101713 -0.08005731
0001a0 5a 8a 3e 3f 12 b0 28 3d bf 17 b5 3f 12 01 0d 3d
       0.7442986 0.04118354 1.4147872 0.03442485
0001b0 25 44 24 3f 4f 1f 92 3c b5 39 52 3d 7b a6 21 bc
       0.6416648 0.017837195 0.051324565 -0.009866352
0001c0 b9 fc 18 be c6 e7 18 bd e9 7b 8a bc d7 18 81 3d
       -0.14940156 -0.03733041 -0.016904788 0.06303566
0001d0 66 45 7e 3d d6 b6 9f 3c 7a e0 ad bd 06 7c 7a bc
       0.062077902 0.019496363 -0.08490081 -0.015288359
0001e0 1c 96 7d 3d 8c 7c a5 3d a2 bf c2 bd 68 fc 5a 3d
       0.061910734 0.08080396 -0.09509207 0.05346337
0001f0 64 5f 89 3d b2 70 81 3d 4d c8 8e 3d 2c 83 8a 3d
       0.067076474 0.06320323 0.06971798 0.067633

coord_updates f4 [10, 3]
000000 00 00 00 00 00 00 00 00 00 00 00 00 00 00 00 00
       0.0 0.0 0.0 0.0
000010 00 00 00 00 00 00 00 00 00 00 00 00 00 00 00 00
       0.0 0.0 0.0 0.0
000020 00 00 00 00 00 00 00 00 00 00 00 00 00 00 00 00
       0.0 0.0 0.0 0.0
000030 00 00 00 00 00 00 00 00 00 00 00 00 00 00 00 00
       0.0 0.0 0.0 0.0
000040 00 00 00 00 00 00 00 00 00 00 00 00 00 00 00 00
       0.0 0.0 0.0 0.0
000050 00 00 00 00 00 00 00 00 00 00 00 00 00 00 00 00
       0.0 0.0 0.0 0.0
000060 00 00 00 00 00 00 00 00 00 00 00 00 00 00 00 00
       0.0 0.0 0.0 0.0
000070 00 00 00 00 00 00 00 00
       0.0 0.0

weight f4 [128, 35]
000000 3b 6c e3 3e f4 b3 67 bb bf 01 90 bd 97 1a cf 3e
       0.4441851 -0.0035355063 -0.07031583 0.40449974
000010 c8 ee 65 be 1b af 69 3d da 2d 83 3c 24 99 8d 3c
       -0.22454369 0.05705176 0.016013075 0.017284937
000020 c8 cd ee be fe a4 c1 bd 96 4e 06 be 9e cb b9 3d
       -0.46641374 -0.09455298 -0.13115916 0.0907204
000030 fe c4 b6 3d 50 72 b3 be 78 b3 69 3d 38 e6 8d 3d
       0.08924292 -0.3504815 0.05705592 0.06928676
000040 f3 fa 01 bd 60 12 60 bb 2b 15 30 3e 3b 73 c7 3d
       -0.031733464 -0.003419064 0.17195575 0.09738775
000050 7b 2a 0c 3e a5 43 b9 3c bf 80 51 be a1 dc 1a 3e
       0.1368808 0.022615263 -0.20459269 0.15123226
000060 33 03 0c 3d 10 41 7c bd 98 3f db 3b a5 fe 50 3c
       0.03418274 -0.061585486 0.0066909306 0.0127560245
000070 a2 90 61 be 24 1e 3b be e1 90 8f be 2a 20 11 3d
       -0.2202783 -0.18273216 -0.2804022 0.035431065
000080 26 ca 5f 3e 23 0c 8e 3d b6 ba 70 be b2 4c 6a be
       0.21854457 0.06935909 -0.23508725 -0.2288082
000090 6c 12 6f 3d 7a a5 20 bd 61 4e 23 3e fd a3 ac 3d
       0.058367178 -0.03922031 0.15947868 0.08429716
0000a0 42 5c b2 bd b8 c8 f3 bd ba 65 49 be 23 1e 8b bd
       -0.08709003 -0.119035184 -0.19667712 -0.067928575
0000b0 f6 29 14 be 76 61 fc bd 73 af ad 3d c9 ef 25 bd
       -0.14469132 -0.12323277 0.0848073 -0.04051188
0000c0 3f 25 35 3e ab 17 bb 3b 83 55 47 3d 92 f5 51 be
       0.1768999 0.0057096086 0.048665535 -0.20503834
0000d0 57 9e df bd 62 ef 68 3d 1c 19 0b bd 76 df e8 bd
       -0.10918873 0.05686892 -0.033959493 -0.11370747
0000e0 d1 29 a4 3d 76 8e 10 3c 0a b1 e8 3d d2 73 22 be
       0.08015788 0.008823028 0.113618925 -0.15864494
0000f0 fe 77 09 be 10 ee 3b be e9 76 b4 bd b9 b0 92 3d
       -0.1342468 -0.18352532 -0.08811743 0.071626134
000100 83 71 08 bd 37 c6 f8 bd 60 be a8 3c 12 46 a5 3d
       -0.03331138 -0.121471815 0.02059859 0.080700055
000110 e1 ca 40 be b0 10 a2 be 13 2a fe bc c6 21 c1 3d
       -0.18827392 -0.31653357 -0.031025922 0.0943027
000120 3e f7 ab bb b0 ac 89 bc 75 88 c3 3d a1 31 c0 3d
       -0.0052479794 -0.016805977 0.095475115 0.09384466
000130 ac d5 f0 bd 09 ad 07 3e 15 e3 da bd 0f 9b 96 3d
       -0.11759505 0.13249601 -0.10687844 0.07353794
000140 52 77 d2 3d fc 21 13 bd e6 7d e9 3d fc 40 0b 3e
       0.10276665 -0.035921082 0.11400966 0.13599008
000150 a3 a4 cc bd 07 8e 0c 3e ae 50 88 3d 94 0b 81 3d
       -0.099923395 0.13726054 0.066560134 0.063010365
000160 dd 4d ee bd 35 27 88 bd 5a d6 a6 3d 38 6d bd 3d
       -0.11635945 -0.06648103 0.08146353 0.092493474
000170 95 4f 4e be db 3c 84 3b b9 a9 d7 bd bf d2 96 3d
       -0.20147546 0.004035575 -0.10530419 0.073644154
000180 13 1e a3 3d d3 e9 6c bd 48 af 22 3e 40 c2 1c be
       0.079647206 -0.05784018 0.15887177 -0.15308475
000190 f5 f9 a2 3d 53 e2 d7 b9 de 00 49 bd 16 4b c0 3d
       0.07957832 -0.0004117662 -0.049073093 0.093893215
0001a0 0f d0 54 be aa 08 b1 3c d9 d9 13 3e 04 cf 45 3e
       -0.20782493 0.021610577 0.14438571 0.19317251
0001b0 fe 29 54 bd 14 1e a6 bc 0c 66 49 bd f5 c8 ee 3d
       -0.05179786 -0.020278014 -0.049169585 0.11659423
0001c0 68 89 01 3a b8 94 98 3d 03 cc 35 be 16 84 cd 3c
       0.00049414346 0.07450241 -0.17753606 0.025087398
0001d0 ab e7 88 3d 1e 6c 23 be 9c 04 4a 3d cf a8 83 bd
       0.06684812 -0.15959212 0.049320802 -0.06428682
0001e0 b2 dd 18 be 7d 1d aa bd dd b6 cd 3d a8 45 34 be
       -0.1492832 -0.08306406 0.10044644 -0.17604697
0001f0 2f 98 f1 bd 22 70 d2 3d 46 cc 1e bd e5 4a 1f be
       -0.11796605 0.10275294 -0.03876903 -0.15555914
000200 9c 90 ab 3d eb 56 06 bd 46 b7 2a 3d 8f c7 01 3e
       0.083771914 -0.032797735 0.04167869 0.12673782
000210 de 5b 81 3d 32 b1 1d 3e 19 d2 b1 bc ef 7e 0c 3e
       0.063163504 0.15399626 -0.021706628 0.13720296
000220 cd 42 0b 3d 94 e0 96 bd 66 88 e8 bd 6f cd 1f be
       0.033999253 -0.07367054 -0.11354141 -0.1560571
000230 1c c5 52 bd 62 f9 33 3d 5d b9 cd bc d2 67 b2 3d
       -0.05145751 0.043939 -0.025112802 0.087112084
000240 9c 20 04 be c2 66 5e bd 01 e0 1c 3e 3e 51 49 bc
       -0.12903064 -0.054297216 0.15319826 -0.012287436
000250 e9 50 ea 3c 5f a8 4b bd 7a 62 b1 bd 51 da a0 3d
       0.028603034 -0.049721118 -0.08661361 0.078541405
000260 af e0 16 3e 70 02 c2 3d 5c dd 5a 3d f1 39 e0 bc
       0.14734147 0.09473121 0.05343376 -0.027371379
000270 21 b4 6d bc 99 be 82 bd 93 33 09 3e 43 ba 6f 3d
       -0.014508278 -0.0638401 0.1339858 0.058527242
000280 12 05 d5 3d df 35 37 3d 79 1a ec bd 7f bb d9 bb
       0.10401358 0.04472911 -0.11528487 -0.0066446657
000290 db 72 ba bd 33 fd b4 bd bc 26 28 3e b6 55 b9 bc
       -0.09103938 -0.088373564 0.16421026 -0.022623878
0002a0 67 3c c9 3d 8c 77 33 3d 62 93 b1 3d 58 c0 64 3e
       0.09825974 0.04381518 0.08670689 0.22338998
0002b0 75 33 88 3c db bb 24 3e b2 9a b0 3e f1 84 80 3e
       0.0166261 0.16087286 0.34493023 0.25101426
0002c0 a5 94 de 3c 64 0c fa bd a0 ef a2 3d 75 94 dd 3c
       0.027170489 -0.122093946 0.07955861 0.027048329
0002d0 eb 55 9a bd 00 24 8d bd 8f b4 67 3d 6c 17 27 be
       -0.07535919 -0.06891632 0.05656868 -0.16317528
0002e0 24 96 1a be 10 75 06 bd 29 db c2 bd a7 b1 9b 3d
       -0.15096337 -0.032826483 -0.09514458 0.07602244
0002f0 21 e5 bb 3c 3c 55 87 3d a6 7e 32 be d7 ed fc 3b
       0.022936406 0.06608054 -0.17431125 0.0077187824
000300 5f db 9f 3d cf 8e 0e bd 3a 3b 42 be 9f ec 0e 3e
       0.078055136 -0.03480416 -0.18967906 0.13957451
000310 ad fb d2 bd 43 c0 8e bc b2 9a 2f be fc 69 fb bd
       -0.103019096 -0.017425662 -0.17148855 -0.12276074
000320 8c 5a 70 be af a9 9d 3d 46 27 c5 bc 3c 1c a9 3d
       -0.23472041 0.0769838 -0.024066579 0.082573384
000330 4d 6e 9c 3e 84 62 f6 bd d2 08 80 3d 62 81 2e 3d
       0.30552903 -0.12030509 0.06251682 0.042603858
000340 f2 a3 aa bd d1 fc 02 be 8c d3 38 3e 50 61 0c 3c
       -0.08332051 -0.12791754 0.18049449 0.008568123
000350 6c 22 39 be ef c1 0e 3e d1 d4 11 be e0 4a 25 3e
       -0.18079537 0.13941167 -0.1424134 0.16141844
000360 6a 50 8e bb 90 b6 db bd c4 e8 22 be d1 95 ff bb
       -0.004343082 -0.107281804 -0.15909106 -0.007799842
000370 b1 72 2c bd d9 32 dc bb 1a 89 e8 bc 5e a3 04 bd
       -0.042101566 -0.0067199287 -0.028385688 -0.03238236
000380 07 9f 28 3e 6f 35 ad 3d 41 e7 ff bb 3a ef 11 3e
       0.16466914 0.08457457 -0.00780955 0.14251414
000390 da f9 1d 3e 63 bd 23 be fa cb ca bc 06 dc 58 3d
       0.15427342 -0.15990214 -0.024755467 0.052944206
0003a0 2d 44 1c 3e c5 97 0b bd 28 3a d5 3d 14 28 8f bd
       0.15260382 -0.034080286 0.10411483 -0.06990066
0003b0 e8 95 e5 3b c9 48 14 be f4 a0 81 be 8d 0e 8b be
       0.0070063956 -0.1448089 -0.2531811 -0.2715954
0003c0 65 d4 24 be 3e fb 6e bd 6a c6 67 3a 5c 56 36 3e
       -0.16096647 -0.058345072 0.00088415167 0.17806381
0003d0 2c 57 35 3c 94 4d 20 bd 26 f6 c5 3d e1 a1 48 3a
       0.011068147 -0.039136484 0.0966609 0.00076535164
0003e0 19 5a c0 3d 61 b5 0b 3e bb d0 74 bd e6 87 29 bd
       0.09392185 0.1364341 -0.059769373 -0.04138937
0003f0 dc 54 6e be 43 1c 7c be 6c 59 c4 be cf 9d e3 bd
       -0.23274559 -0.24620156 -0.38349473 -0.11114084

bias f4 [128]
000000 99 8d 5a bd ea 5b 6b be a1 e3 02 3d 78 b6 ca 3c
       -0.053357694 -0.22984281 0.031955365 0.024745211
000010 fc 58 c9 3d 70 43 35 3d 65 06 cc bd 71 4c ef bd
       0.098314255 0.044253767 -0.09962157 -0.11684502
000020 91 aa 29 bd 34 57 08 bd a3 2b da 3c 21 9d 3c be
       -0.04142243 -0.03328629 0.026632136 -0.18419315
000030 4c 3d 1f be e4 4b 88 3c 6f ea 31 3c 3e db 09 bd
       -0.15550727 0.01663775 0.010859116 -0.03365635
000040 23 f1 a2 bd 1f f6 54 be 11 ef 3a bd a7 7d 68 3d
       -0.079561494 -0.20797013 -0.045638148 0.056760456
000050 7f fc 9b be 56 da e8 3d 2b bd c4 bd f4 bb ae bd
       -0.30466077 0.11369769 -0.096063934 -0.08531943
000060 0b 7f d8 3d c2 a3 b2 3d e5 35 68 bd 44 d4 46 3d
       0.105711065 0.087226406 -0.056692023 0.048542276
000070 ad c9 ab be 53 e4 5f 3e 33 6c 3f 3e 2b 3e 20 be
       -0.33552304 0.21864443 0.18693618 -0.15648715
000080 c2 fd c6 bd f1 66 34 3d 23 85 46 be 2e c2 4b 3d
       -0.09716369 0.044043485 -0.19386725 0.04974573
000090 0b ab f6 bc 84 19 87 3e 16 90 71 3d 69 52 30 3d
       -0.030110857 0.26386654 0.0589753 0.043047342
0000a0 0c c4 90 3c 7e 0e bf bb fd 7c 09 3e a9 86 05 3e
       0.017671607 -0.005830585 0.13426585 0.1303965
0000b0 00 5a b7 3d 54 e3 5c bd 48 6b 3c 3e b6 6c a3 bd
       0.08952713 -0.053927734 0.184003 -0.07979719
0000c0 74 62 b2 bd 6a e3 6a 3e 71 ea 40 be 42 07 2a be
       -0.08710185 0.22938314 -0.18839432 -0.16604331
0000d0 bc f1 05 be 6d 1f e6 bd 0a bc ab 3d e6 fc 12 be
       -0.13080496 -0.11236463 0.08385475 -0.14354286
0000e0 aa 46 f7 bc 18 b6 03 3e ce b3 41 bd cb ba 15 be
       -0.030185062 0.12862432 -0.047290616 -0.14622037
0000f0 7b 40 f5 bd 91 ce 09 3e 2a 46 db bc 84 50 4e bb
       -0.11975189 0.13457705 -0.026766855 -0.0031481097
000100 b2 40 08 be b6 4f 19 be 57 05 5b 3d 95 68 f9 bd
       -0.1330593 -0.14971814 0.05347189 -0.121781506
000110 88 3d 64 3e 0f 67 48 3e 8b 1c cc 3d 94 ec 53 be
       0.22289097 0.19570564 0.09966382 -0.20695716
000120 0c 01 bb 3c 01 7d 85 3d de 28 ce 3d 55 53 34 3c
       0.022827648 0.06517983 0.100663885 0.011006196
000130 58 0d bd bd 0e 76 f8 bc d9 95 5d be 40 b6 af bd
       -0.09231061 -0.03032973 -0.21639194 -0.08579683
000140 c1 59 14 3d c6 9b 04 be 4d 6c e4 bd 08 a5 23 3c
       0.03621841 -0.12950048 -0.11153469 0.009988077
000150 3a 1b e3 bd 58 60 8e be 5c 31 00 3e 07 c2 8c 3d
       -0.110891774 -0.2780788 0.12518829 0.06872945
000160 7e ec 4e be f6 28 58 bd de da 0b be 01 cd 6f 3d
       -0.20207402 -0.05277344 -0.1365771 0.058545116
000170 8c 6e 6e 3d ef 18 de 3b 02 69 96 3d 36 4c 93 bd
       0.058210894 0.0067778747 0.073442474 -0.071922705
000180 1a 4c 03 3e 77 0a 77 3d 3b c3 70 3d a3 75 3e 3e
       0.12821999 0.060312714 0.058779936 0.18599562
000190 71 af dd bd 6d bc fd bd b4 7b 86 ba 15 89 97 3d
       -0.108244784 -0.12389455 -0.0010260255 0.07399193
0001a0 f2 19 fb bc ba 68 b6 3d fb fc 7d 3e d1 83 2b be
       -0.03065202 0.08906694 0.24803536 -0.16749503
0001b0 c3 e3 ac 3c c0 d2 32 be f5 09 a0 bd 8d 27 f2 bd
       0.021104699 -0.17463207 -0.07814399 -0.1182395
0001c0 5b d7 29 bd 08 bd a5 bd 90 38 83 3d c6 f5 fd bd
       -0.041465145 -0.080926955 0.06407273 -0.12400393
0001d0 cb cf 9d 3e 74 a0 2b bd 34 b0 67 bc 0c 36 f5 3b
       0.30822596 -0.041901067 -0.014141131 0.0074832495
0001e0 b5 05 91 bd f7 48 2d 3e e5 93 74 3d ed 02 e4 bd
       -0.07081167 0.16922365 0.059711356 -0.111333705
0001f0 e2 8e 8b bd 0b ad 03 be b7 7b d1 3d 84 93 8a bd
       -0.06814362 -0.1285898 0.10228675 -0.067664176
